<?xml version="1.0" ?>
<net name="torch_jit" version="11">
	<layers>
		<layer id="0" name="input" type="Parameter" version="opset1">
			<data shape="1,3,416,416" element_type="f32"/>
			<rt_info>
				<attribute name="fused_names" version="0" value="input"/>
			</rt_info>
			<output>
				<port id="0" precision="FP32" names="input">
					<dim>1</dim>
					<dim>3</dim>
					<dim>416</dim>
					<dim>416</dim>
				</port>
			</output>
		</layer>
		<layer id="1" name="Constant_14104" type="Const" version="opset1">
			<data element_type="f32" shape="16, 3, 3, 3" offset="0" size="1728"/>
			<rt_info>
				<attribute name="fused_names" version="0" value="Constant_6626, Convolution_216, Divide_6627, model.0.stem_1.conv.weight"/>
				<attribute name="preprocessing" version="0"/>
			</rt_info>
			<output>
				<port id="0" precision="FP32">
					<dim>16</dim>
					<dim>3</dim>
					<dim>3</dim>
					<dim>3</dim>
				</port>
			</output>
		</layer>
		<layer id="2" name="Convolution_216" type="Convolution" version="opset1">
			<data strides="2, 2" dilations="1, 1" pads_begin="1, 1" pads_end="1, 1" auto_pad="explicit"/>
			<rt_info>
				<attribute name="fused_names" version="0" value="Constant_6626, Convolution_216, Divide_6627, model.0.stem_1.conv.weight"/>
				<attribute name="preprocessing" version="0"/>
			</rt_info>
			<input>
				<port id="0" precision="FP32">
					<dim>1</dim>
					<dim>3</dim>
					<dim>416</dim>
					<dim>416</dim>
				</port>
				<port id="1" precision="FP32">
					<dim>16</dim>
					<dim>3</dim>
					<dim>3</dim>
					<dim>3</dim>
				</port>
			</input>
			<output>
				<port id="2" precision="FP32">
					<dim>1</dim>
					<dim>16</dim>
					<dim>208</dim>
					<dim>208</dim>
				</port>
			</output>
		</layer>
		<layer id="3" name="Reshape_236" type="Const" version="opset1">
			<data element_type="f32" shape="1, 16, 1, 1" offset="1728" size="64"/>
			<output>
				<port id="0" precision="FP32">
					<dim>1</dim>
					<dim>16</dim>
					<dim>1</dim>
					<dim>1</dim>
				</port>
			</output>
		</layer>
		<layer id="4" name="/model.0/stem_1/conv/Conv_output_0" type="Add" version="opset1">
			<data auto_broadcast="numpy"/>
			<rt_info>
				<attribute name="fused_names" version="0" value="/model.0/stem_1/conv/Conv_output_0, Concat_235, Reshape_236"/>
			</rt_info>
			<input>
				<port id="0" precision="FP32">
					<dim>1</dim>
					<dim>16</dim>
					<dim>208</dim>
					<dim>208</dim>
				</port>
				<port id="1" precision="FP32">
					<dim>1</dim>
					<dim>16</dim>
					<dim>1</dim>
					<dim>1</dim>
				</port>
			</input>
			<output>
				<port id="2" precision="FP32" names="/model.0/stem_1/conv/Conv_output_0">
					<dim>1</dim>
					<dim>16</dim>
					<dim>208</dim>
					<dim>208</dim>
				</port>
			</output>
		</layer>
		<layer id="5" name="/model.0/stem_1/act/Mul_output_0" type="Swish" version="opset4">
			<rt_info>
				<attribute name="fused_names" version="0" value="/model.0/stem_1/act/Mul_output_0, /model.0/stem_1/act/Sigmoid_output_0"/>
			</rt_info>
			<input>
				<port id="0" precision="FP32">
					<dim>1</dim>
					<dim>16</dim>
					<dim>208</dim>
					<dim>208</dim>
				</port>
			</input>
			<output>
				<port id="1" precision="FP32" names="/model.0/stem_1/act/Mul_output_0">
					<dim>1</dim>
					<dim>16</dim>
					<dim>208</dim>
					<dim>208</dim>
				</port>
			</output>
		</layer>
		<layer id="6" name="model.0.stem_2a.conv.weight" type="Const" version="opset1">
			<data element_type="f32" shape="8, 16, 1, 1" offset="1792" size="512"/>
			<rt_info>
				<attribute name="fused_names" version="0" value="model.0.stem_2a.conv.weight"/>
			</rt_info>
			<output>
				<port id="0" precision="FP32" names="model.0.stem_2a.conv.weight">
					<dim>8</dim>
					<dim>16</dim>
					<dim>1</dim>
					<dim>1</dim>
				</port>
			</output>
		</layer>
		<layer id="7" name="Convolution_266" type="Convolution" version="opset1">
			<data strides="1, 1" dilations="1, 1" pads_begin="0, 0" pads_end="0, 0" auto_pad="explicit"/>
			<rt_info>
				<attribute name="fused_names" version="0" value="Convolution_266"/>
			</rt_info>
			<input>
				<port id="0" precision="FP32">
					<dim>1</dim>
					<dim>16</dim>
					<dim>208</dim>
					<dim>208</dim>
				</port>
				<port id="1" precision="FP32">
					<dim>8</dim>
					<dim>16</dim>
					<dim>1</dim>
					<dim>1</dim>
				</port>
			</input>
			<output>
				<port id="2" precision="FP32">
					<dim>1</dim>
					<dim>8</dim>
					<dim>208</dim>
					<dim>208</dim>
				</port>
			</output>
		</layer>
		<layer id="8" name="Reshape_286" type="Const" version="opset1">
			<data element_type="f32" shape="1, 8, 1, 1" offset="2304" size="32"/>
			<output>
				<port id="0" precision="FP32">
					<dim>1</dim>
					<dim>8</dim>
					<dim>1</dim>
					<dim>1</dim>
				</port>
			</output>
		</layer>
		<layer id="9" name="/model.0/stem_2a/conv/Conv_output_0" type="Add" version="opset1">
			<data auto_broadcast="numpy"/>
			<rt_info>
				<attribute name="fused_names" version="0" value="/model.0/stem_2a/conv/Conv_output_0, Concat_285, Reshape_286"/>
			</rt_info>
			<input>
				<port id="0" precision="FP32">
					<dim>1</dim>
					<dim>8</dim>
					<dim>208</dim>
					<dim>208</dim>
				</port>
				<port id="1" precision="FP32">
					<dim>1</dim>
					<dim>8</dim>
					<dim>1</dim>
					<dim>1</dim>
				</port>
			</input>
			<output>
				<port id="2" precision="FP32" names="/model.0/stem_2a/conv/Conv_output_0">
					<dim>1</dim>
					<dim>8</dim>
					<dim>208</dim>
					<dim>208</dim>
				</port>
			</output>
		</layer>
		<layer id="10" name="/model.0/stem_2a/act/Mul_output_0" type="Swish" version="opset4">
			<rt_info>
				<attribute name="fused_names" version="0" value="/model.0/stem_2a/act/Mul_output_0, /model.0/stem_2a/act/Sigmoid_output_0"/>
			</rt_info>
			<input>
				<port id="0" precision="FP32">
					<dim>1</dim>
					<dim>8</dim>
					<dim>208</dim>
					<dim>208</dim>
				</port>
			</input>
			<output>
				<port id="1" precision="FP32" names="/model.0/stem_2a/act/Mul_output_0">
					<dim>1</dim>
					<dim>8</dim>
					<dim>208</dim>
					<dim>208</dim>
				</port>
			</output>
		</layer>
		<layer id="11" name="model.0.stem_2b.conv.weight" type="Const" version="opset1">
			<data element_type="f32" shape="16, 8, 3, 3" offset="2336" size="4608"/>
			<rt_info>
				<attribute name="fused_names" version="0" value="model.0.stem_2b.conv.weight"/>
			</rt_info>
			<output>
				<port id="0" precision="FP32" names="model.0.stem_2b.conv.weight">
					<dim>16</dim>
					<dim>8</dim>
					<dim>3</dim>
					<dim>3</dim>
				</port>
			</output>
		</layer>
		<layer id="12" name="Convolution_316" type="Convolution" version="opset1">
			<data strides="2, 2" dilations="1, 1" pads_begin="1, 1" pads_end="1, 1" auto_pad="explicit"/>
			<rt_info>
				<attribute name="fused_names" version="0" value="Convolution_316"/>
			</rt_info>
			<input>
				<port id="0" precision="FP32">
					<dim>1</dim>
					<dim>8</dim>
					<dim>208</dim>
					<dim>208</dim>
				</port>
				<port id="1" precision="FP32">
					<dim>16</dim>
					<dim>8</dim>
					<dim>3</dim>
					<dim>3</dim>
				</port>
			</input>
			<output>
				<port id="2" precision="FP32">
					<dim>1</dim>
					<dim>16</dim>
					<dim>104</dim>
					<dim>104</dim>
				</port>
			</output>
		</layer>
		<layer id="13" name="Reshape_336" type="Const" version="opset1">
			<data element_type="f32" shape="1, 16, 1, 1" offset="6944" size="64"/>
			<output>
				<port id="0" precision="FP32">
					<dim>1</dim>
					<dim>16</dim>
					<dim>1</dim>
					<dim>1</dim>
				</port>
			</output>
		</layer>
		<layer id="14" name="/model.0/stem_2b/conv/Conv_output_0" type="Add" version="opset1">
			<data auto_broadcast="numpy"/>
			<rt_info>
				<attribute name="fused_names" version="0" value="/model.0/stem_2b/conv/Conv_output_0, Concat_335, Reshape_336"/>
			</rt_info>
			<input>
				<port id="0" precision="FP32">
					<dim>1</dim>
					<dim>16</dim>
					<dim>104</dim>
					<dim>104</dim>
				</port>
				<port id="1" precision="FP32">
					<dim>1</dim>
					<dim>16</dim>
					<dim>1</dim>
					<dim>1</dim>
				</port>
			</input>
			<output>
				<port id="2" precision="FP32" names="/model.0/stem_2b/conv/Conv_output_0">
					<dim>1</dim>
					<dim>16</dim>
					<dim>104</dim>
					<dim>104</dim>
				</port>
			</output>
		</layer>
		<layer id="15" name="/model.0/stem_2b/act/Mul_output_0" type="Swish" version="opset4">
			<rt_info>
				<attribute name="fused_names" version="0" value="/model.0/stem_2b/act/Mul_output_0, /model.0/stem_2b/act/Sigmoid_output_0"/>
			</rt_info>
			<input>
				<port id="0" precision="FP32">
					<dim>1</dim>
					<dim>16</dim>
					<dim>104</dim>
					<dim>104</dim>
				</port>
			</input>
			<output>
				<port id="1" precision="FP32" names="/model.0/stem_2b/act/Mul_output_0">
					<dim>1</dim>
					<dim>16</dim>
					<dim>104</dim>
					<dim>104</dim>
				</port>
			</output>
		</layer>
		<layer id="16" name="/model.0/stem_2p/MaxPool_output_0" type="MaxPool" version="opset8">
			<data strides="2, 2" dilations="1, 1" pads_begin="0, 0" pads_end="0, 0" kernel="2, 2" rounding_type="ceil" auto_pad="explicit" index_element_type="i64" axis="0"/>
			<rt_info>
				<attribute name="fused_names" version="0" value="/model.0/stem_2p/MaxPool_output_0"/>
			</rt_info>
			<input>
				<port id="0" precision="FP32">
					<dim>1</dim>
					<dim>16</dim>
					<dim>208</dim>
					<dim>208</dim>
				</port>
			</input>
			<output>
				<port id="1" precision="FP32" names="/model.0/stem_2p/MaxPool_output_0">
					<dim>1</dim>
					<dim>16</dim>
					<dim>104</dim>
					<dim>104</dim>
				</port>
				<port id="2" precision="I64">
					<dim>1</dim>
					<dim>16</dim>
					<dim>104</dim>
					<dim>104</dim>
				</port>
			</output>
		</layer>
		<layer id="17" name="/model.0/Concat_output_0" type="Concat" version="opset1">
			<data axis="1"/>
			<rt_info>
				<attribute name="fused_names" version="0" value="/model.0/Concat_output_0"/>
			</rt_info>
			<input>
				<port id="0" precision="FP32">
					<dim>1</dim>
					<dim>16</dim>
					<dim>104</dim>
					<dim>104</dim>
				</port>
				<port id="1" precision="FP32">
					<dim>1</dim>
					<dim>16</dim>
					<dim>104</dim>
					<dim>104</dim>
				</port>
			</input>
			<output>
				<port id="2" precision="FP32" names="/model.0/Concat_output_0">
					<dim>1</dim>
					<dim>32</dim>
					<dim>104</dim>
					<dim>104</dim>
				</port>
			</output>
		</layer>
		<layer id="18" name="model.0.stem_3.conv.weight" type="Const" version="opset1">
			<data element_type="f32" shape="16, 32, 1, 1" offset="7008" size="2048"/>
			<rt_info>
				<attribute name="fused_names" version="0" value="model.0.stem_3.conv.weight"/>
			</rt_info>
			<output>
				<port id="0" precision="FP32" names="model.0.stem_3.conv.weight">
					<dim>16</dim>
					<dim>32</dim>
					<dim>1</dim>
					<dim>1</dim>
				</port>
			</output>
		</layer>
		<layer id="19" name="Convolution_368" type="Convolution" version="opset1">
			<data strides="1, 1" dilations="1, 1" pads_begin="0, 0" pads_end="0, 0" auto_pad="explicit"/>
			<rt_info>
				<attribute name="fused_names" version="0" value="Convolution_368"/>
			</rt_info>
			<input>
				<port id="0" precision="FP32">
					<dim>1</dim>
					<dim>32</dim>
					<dim>104</dim>
					<dim>104</dim>
				</port>
				<port id="1" precision="FP32">
					<dim>16</dim>
					<dim>32</dim>
					<dim>1</dim>
					<dim>1</dim>
				</port>
			</input>
			<output>
				<port id="2" precision="FP32">
					<dim>1</dim>
					<dim>16</dim>
					<dim>104</dim>
					<dim>104</dim>
				</port>
			</output>
		</layer>
		<layer id="20" name="Reshape_388" type="Const" version="opset1">
			<data element_type="f32" shape="1, 16, 1, 1" offset="9056" size="64"/>
			<output>
				<port id="0" precision="FP32">
					<dim>1</dim>
					<dim>16</dim>
					<dim>1</dim>
					<dim>1</dim>
				</port>
			</output>
		</layer>
		<layer id="21" name="/model.0/stem_3/conv/Conv_output_0" type="Add" version="opset1">
			<data auto_broadcast="numpy"/>
			<rt_info>
				<attribute name="fused_names" version="0" value="/model.0/stem_3/conv/Conv_output_0, Concat_387, Reshape_388"/>
			</rt_info>
			<input>
				<port id="0" precision="FP32">
					<dim>1</dim>
					<dim>16</dim>
					<dim>104</dim>
					<dim>104</dim>
				</port>
				<port id="1" precision="FP32">
					<dim>1</dim>
					<dim>16</dim>
					<dim>1</dim>
					<dim>1</dim>
				</port>
			</input>
			<output>
				<port id="2" precision="FP32" names="/model.0/stem_3/conv/Conv_output_0">
					<dim>1</dim>
					<dim>16</dim>
					<dim>104</dim>
					<dim>104</dim>
				</port>
			</output>
		</layer>
		<layer id="22" name="/model.0/stem_3/act/Mul_output_0" type="Swish" version="opset4">
			<rt_info>
				<attribute name="fused_names" version="0" value="/model.0/stem_3/act/Mul_output_0, /model.0/stem_3/act/Sigmoid_output_0"/>
			</rt_info>
			<input>
				<port id="0" precision="FP32">
					<dim>1</dim>
					<dim>16</dim>
					<dim>104</dim>
					<dim>104</dim>
				</port>
			</input>
			<output>
				<port id="1" precision="FP32" names="/model.0/stem_3/act/Mul_output_0">
					<dim>1</dim>
					<dim>16</dim>
					<dim>104</dim>
					<dim>104</dim>
				</port>
			</output>
		</layer>
		<layer id="23" name="Reshape_425" type="Const" version="opset1">
			<data element_type="f32" shape="16, 1, 1, 3, 3" offset="9120" size="576"/>
			<output>
				<port id="0" precision="FP32">
					<dim>16</dim>
					<dim>1</dim>
					<dim>1</dim>
					<dim>3</dim>
					<dim>3</dim>
				</port>
			</output>
		</layer>
		<layer id="24" name="GroupConvolution_491" type="GroupConvolution" version="opset1">
			<data strides="2, 2" pads_begin="1, 1" pads_end="1, 1" dilations="1, 1" auto_pad="explicit"/>
			<rt_info>
				<attribute name="fused_names" version="0" value="GroupConvolution_491, Reshape_425"/>
			</rt_info>
			<input>
				<port id="0" precision="FP32">
					<dim>1</dim>
					<dim>16</dim>
					<dim>104</dim>
					<dim>104</dim>
				</port>
				<port id="1" precision="FP32">
					<dim>16</dim>
					<dim>1</dim>
					<dim>1</dim>
					<dim>3</dim>
					<dim>3</dim>
				</port>
			</input>
			<output>
				<port id="2" precision="FP32">
					<dim>1</dim>
					<dim>16</dim>
					<dim>52</dim>
					<dim>52</dim>
				</port>
			</output>
		</layer>
		<layer id="25" name="Reshape_511" type="Const" version="opset1">
			<data element_type="f32" shape="1, 16, 1, 1" offset="9696" size="64"/>
			<output>
				<port id="0" precision="FP32">
					<dim>1</dim>
					<dim>16</dim>
					<dim>1</dim>
					<dim>1</dim>
				</port>
			</output>
		</layer>
		<layer id="26" name="/model.1/branch1/branch1.0/Conv_output_0" type="Add" version="opset1">
			<data auto_broadcast="numpy"/>
			<rt_info>
				<attribute name="fused_names" version="0" value="/model.1/branch1/branch1.0/Conv_output_0, Concat_510, Reshape_511"/>
			</rt_info>
			<input>
				<port id="0" precision="FP32">
					<dim>1</dim>
					<dim>16</dim>
					<dim>52</dim>
					<dim>52</dim>
				</port>
				<port id="1" precision="FP32">
					<dim>1</dim>
					<dim>16</dim>
					<dim>1</dim>
					<dim>1</dim>
				</port>
			</input>
			<output>
				<port id="2" precision="FP32" names="/model.1/branch1/branch1.0/Conv_output_0">
					<dim>1</dim>
					<dim>16</dim>
					<dim>52</dim>
					<dim>52</dim>
				</port>
			</output>
		</layer>
		<layer id="27" name="onnx::Conv_1309" type="Const" version="opset1">
			<data element_type="f32" shape="32, 16, 1, 1" offset="9760" size="2048"/>
			<rt_info>
				<attribute name="fused_names" version="0" value="onnx::Conv_1309"/>
			</rt_info>
			<output>
				<port id="0" precision="FP32" names="onnx::Conv_1309">
					<dim>32</dim>
					<dim>16</dim>
					<dim>1</dim>
					<dim>1</dim>
				</port>
			</output>
		</layer>
		<layer id="28" name="Convolution_539" type="Convolution" version="opset1">
			<data strides="1, 1" dilations="1, 1" pads_begin="0, 0" pads_end="0, 0" auto_pad="explicit"/>
			<rt_info>
				<attribute name="fused_names" version="0" value="Convolution_539"/>
			</rt_info>
			<input>
				<port id="0" precision="FP32">
					<dim>1</dim>
					<dim>16</dim>
					<dim>52</dim>
					<dim>52</dim>
				</port>
				<port id="1" precision="FP32">
					<dim>32</dim>
					<dim>16</dim>
					<dim>1</dim>
					<dim>1</dim>
				</port>
			</input>
			<output>
				<port id="2" precision="FP32">
					<dim>1</dim>
					<dim>32</dim>
					<dim>52</dim>
					<dim>52</dim>
				</port>
			</output>
		</layer>
		<layer id="29" name="Reshape_559" type="Const" version="opset1">
			<data element_type="f32" shape="1, 32, 1, 1" offset="11808" size="128"/>
			<output>
				<port id="0" precision="FP32">
					<dim>1</dim>
					<dim>32</dim>
					<dim>1</dim>
					<dim>1</dim>
				</port>
			</output>
		</layer>
		<layer id="30" name="/model.1/branch1/branch1.2/Conv_output_0" type="Add" version="opset1">
			<data auto_broadcast="numpy"/>
			<rt_info>
				<attribute name="fused_names" version="0" value="/model.1/branch1/branch1.2/Conv_output_0, Concat_558, Reshape_559"/>
			</rt_info>
			<input>
				<port id="0" precision="FP32">
					<dim>1</dim>
					<dim>32</dim>
					<dim>52</dim>
					<dim>52</dim>
				</port>
				<port id="1" precision="FP32">
					<dim>1</dim>
					<dim>32</dim>
					<dim>1</dim>
					<dim>1</dim>
				</port>
			</input>
			<output>
				<port id="2" precision="FP32" names="/model.1/branch1/branch1.2/Conv_output_0">
					<dim>1</dim>
					<dim>32</dim>
					<dim>52</dim>
					<dim>52</dim>
				</port>
			</output>
		</layer>
		<layer id="31" name="/model.1/branch1/branch1.4/Mul_output_0" type="Swish" version="opset4">
			<rt_info>
				<attribute name="fused_names" version="0" value="/model.1/branch1/branch1.4/Mul_output_0, /model.1/branch1/branch1.4/Sigmoid_output_0"/>
			</rt_info>
			<input>
				<port id="0" precision="FP32">
					<dim>1</dim>
					<dim>32</dim>
					<dim>52</dim>
					<dim>52</dim>
				</port>
			</input>
			<output>
				<port id="1" precision="FP32" names="/model.1/branch1/branch1.4/Mul_output_0">
					<dim>1</dim>
					<dim>32</dim>
					<dim>52</dim>
					<dim>52</dim>
				</port>
			</output>
		</layer>
		<layer id="32" name="onnx::Conv_1312" type="Const" version="opset1">
			<data element_type="f32" shape="32, 16, 1, 1" offset="11936" size="2048"/>
			<rt_info>
				<attribute name="fused_names" version="0" value="onnx::Conv_1312"/>
			</rt_info>
			<output>
				<port id="0" precision="FP32" names="onnx::Conv_1312">
					<dim>32</dim>
					<dim>16</dim>
					<dim>1</dim>
					<dim>1</dim>
				</port>
			</output>
		</layer>
		<layer id="33" name="Convolution_589" type="Convolution" version="opset1">
			<data strides="1, 1" dilations="1, 1" pads_begin="0, 0" pads_end="0, 0" auto_pad="explicit"/>
			<rt_info>
				<attribute name="fused_names" version="0" value="Convolution_589"/>
			</rt_info>
			<input>
				<port id="0" precision="FP32">
					<dim>1</dim>
					<dim>16</dim>
					<dim>104</dim>
					<dim>104</dim>
				</port>
				<port id="1" precision="FP32">
					<dim>32</dim>
					<dim>16</dim>
					<dim>1</dim>
					<dim>1</dim>
				</port>
			</input>
			<output>
				<port id="2" precision="FP32">
					<dim>1</dim>
					<dim>32</dim>
					<dim>104</dim>
					<dim>104</dim>
				</port>
			</output>
		</layer>
		<layer id="34" name="Reshape_609" type="Const" version="opset1">
			<data element_type="f32" shape="1, 32, 1, 1" offset="13984" size="128"/>
			<output>
				<port id="0" precision="FP32">
					<dim>1</dim>
					<dim>32</dim>
					<dim>1</dim>
					<dim>1</dim>
				</port>
			</output>
		</layer>
		<layer id="35" name="/model.1/branch2/branch2.0/Conv_output_0" type="Add" version="opset1">
			<data auto_broadcast="numpy"/>
			<rt_info>
				<attribute name="fused_names" version="0" value="/model.1/branch2/branch2.0/Conv_output_0, Concat_608, Reshape_609"/>
			</rt_info>
			<input>
				<port id="0" precision="FP32">
					<dim>1</dim>
					<dim>32</dim>
					<dim>104</dim>
					<dim>104</dim>
				</port>
				<port id="1" precision="FP32">
					<dim>1</dim>
					<dim>32</dim>
					<dim>1</dim>
					<dim>1</dim>
				</port>
			</input>
			<output>
				<port id="2" precision="FP32" names="/model.1/branch2/branch2.0/Conv_output_0">
					<dim>1</dim>
					<dim>32</dim>
					<dim>104</dim>
					<dim>104</dim>
				</port>
			</output>
		</layer>
		<layer id="36" name="/model.1/branch2/branch2.2/Mul_output_0" type="Swish" version="opset4">
			<rt_info>
				<attribute name="fused_names" version="0" value="/model.1/branch2/branch2.2/Mul_output_0, /model.1/branch2/branch2.2/Sigmoid_output_0"/>
			</rt_info>
			<input>
				<port id="0" precision="FP32">
					<dim>1</dim>
					<dim>32</dim>
					<dim>104</dim>
					<dim>104</dim>
				</port>
			</input>
			<output>
				<port id="1" precision="FP32" names="/model.1/branch2/branch2.2/Mul_output_0">
					<dim>1</dim>
					<dim>32</dim>
					<dim>104</dim>
					<dim>104</dim>
				</port>
			</output>
		</layer>
		<layer id="37" name="Reshape_646" type="Const" version="opset1">
			<data element_type="f32" shape="32, 1, 1, 3, 3" offset="14112" size="1152"/>
			<output>
				<port id="0" precision="FP32">
					<dim>32</dim>
					<dim>1</dim>
					<dim>1</dim>
					<dim>3</dim>
					<dim>3</dim>
				</port>
			</output>
		</layer>
		<layer id="38" name="GroupConvolution_712" type="GroupConvolution" version="opset1">
			<data strides="2, 2" pads_begin="1, 1" pads_end="1, 1" dilations="1, 1" auto_pad="explicit"/>
			<rt_info>
				<attribute name="fused_names" version="0" value="GroupConvolution_712, Reshape_646"/>
			</rt_info>
			<input>
				<port id="0" precision="FP32">
					<dim>1</dim>
					<dim>32</dim>
					<dim>104</dim>
					<dim>104</dim>
				</port>
				<port id="1" precision="FP32">
					<dim>32</dim>
					<dim>1</dim>
					<dim>1</dim>
					<dim>3</dim>
					<dim>3</dim>
				</port>
			</input>
			<output>
				<port id="2" precision="FP32">
					<dim>1</dim>
					<dim>32</dim>
					<dim>52</dim>
					<dim>52</dim>
				</port>
			</output>
		</layer>
		<layer id="39" name="Reshape_732" type="Const" version="opset1">
			<data element_type="f32" shape="1, 32, 1, 1" offset="15264" size="128"/>
			<output>
				<port id="0" precision="FP32">
					<dim>1</dim>
					<dim>32</dim>
					<dim>1</dim>
					<dim>1</dim>
				</port>
			</output>
		</layer>
		<layer id="40" name="/model.1/branch2/branch2.3/Conv_output_0" type="Add" version="opset1">
			<data auto_broadcast="numpy"/>
			<rt_info>
				<attribute name="fused_names" version="0" value="/model.1/branch2/branch2.3/Conv_output_0, Concat_731, Reshape_732"/>
			</rt_info>
			<input>
				<port id="0" precision="FP32">
					<dim>1</dim>
					<dim>32</dim>
					<dim>52</dim>
					<dim>52</dim>
				</port>
				<port id="1" precision="FP32">
					<dim>1</dim>
					<dim>32</dim>
					<dim>1</dim>
					<dim>1</dim>
				</port>
			</input>
			<output>
				<port id="2" precision="FP32" names="/model.1/branch2/branch2.3/Conv_output_0">
					<dim>1</dim>
					<dim>32</dim>
					<dim>52</dim>
					<dim>52</dim>
				</port>
			</output>
		</layer>
		<layer id="41" name="onnx::Conv_1318" type="Const" version="opset1">
			<data element_type="f32" shape="32, 32, 1, 1" offset="15392" size="4096"/>
			<rt_info>
				<attribute name="fused_names" version="0" value="onnx::Conv_1318"/>
			</rt_info>
			<output>
				<port id="0" precision="FP32" names="onnx::Conv_1318">
					<dim>32</dim>
					<dim>32</dim>
					<dim>1</dim>
					<dim>1</dim>
				</port>
			</output>
		</layer>
		<layer id="42" name="Convolution_760" type="Convolution" version="opset1">
			<data strides="1, 1" dilations="1, 1" pads_begin="0, 0" pads_end="0, 0" auto_pad="explicit"/>
			<rt_info>
				<attribute name="fused_names" version="0" value="Convolution_760"/>
			</rt_info>
			<input>
				<port id="0" precision="FP32">
					<dim>1</dim>
					<dim>32</dim>
					<dim>52</dim>
					<dim>52</dim>
				</port>
				<port id="1" precision="FP32">
					<dim>32</dim>
					<dim>32</dim>
					<dim>1</dim>
					<dim>1</dim>
				</port>
			</input>
			<output>
				<port id="2" precision="FP32">
					<dim>1</dim>
					<dim>32</dim>
					<dim>52</dim>
					<dim>52</dim>
				</port>
			</output>
		</layer>
		<layer id="43" name="Reshape_780" type="Const" version="opset1">
			<data element_type="f32" shape="1, 32, 1, 1" offset="19488" size="128"/>
			<output>
				<port id="0" precision="FP32">
					<dim>1</dim>
					<dim>32</dim>
					<dim>1</dim>
					<dim>1</dim>
				</port>
			</output>
		</layer>
		<layer id="44" name="/model.1/branch2/branch2.5/Conv_output_0" type="Add" version="opset1">
			<data auto_broadcast="numpy"/>
			<rt_info>
				<attribute name="fused_names" version="0" value="/model.1/branch2/branch2.5/Conv_output_0, Concat_779, Reshape_780"/>
			</rt_info>
			<input>
				<port id="0" precision="FP32">
					<dim>1</dim>
					<dim>32</dim>
					<dim>52</dim>
					<dim>52</dim>
				</port>
				<port id="1" precision="FP32">
					<dim>1</dim>
					<dim>32</dim>
					<dim>1</dim>
					<dim>1</dim>
				</port>
			</input>
			<output>
				<port id="2" precision="FP32" names="/model.1/branch2/branch2.5/Conv_output_0">
					<dim>1</dim>
					<dim>32</dim>
					<dim>52</dim>
					<dim>52</dim>
				</port>
			</output>
		</layer>
		<layer id="45" name="/model.1/branch2/branch2.7/Mul_output_0" type="Swish" version="opset4">
			<rt_info>
				<attribute name="fused_names" version="0" value="/model.1/branch2/branch2.7/Mul_output_0, /model.1/branch2/branch2.7/Sigmoid_output_0"/>
			</rt_info>
			<input>
				<port id="0" precision="FP32">
					<dim>1</dim>
					<dim>32</dim>
					<dim>52</dim>
					<dim>52</dim>
				</port>
			</input>
			<output>
				<port id="1" precision="FP32" names="/model.1/branch2/branch2.7/Mul_output_0">
					<dim>1</dim>
					<dim>32</dim>
					<dim>52</dim>
					<dim>52</dim>
				</port>
			</output>
		</layer>
		<layer id="46" name="/model.1/Concat_output_0" type="Concat" version="opset1">
			<data axis="1"/>
			<rt_info>
				<attribute name="fused_names" version="0" value="/model.1/Concat_output_0"/>
			</rt_info>
			<input>
				<port id="0" precision="FP32">
					<dim>1</dim>
					<dim>32</dim>
					<dim>52</dim>
					<dim>52</dim>
				</port>
				<port id="1" precision="FP32">
					<dim>1</dim>
					<dim>32</dim>
					<dim>52</dim>
					<dim>52</dim>
				</port>
			</input>
			<output>
				<port id="2" precision="FP32" names="/model.1/Concat_output_0">
					<dim>1</dim>
					<dim>64</dim>
					<dim>52</dim>
					<dim>52</dim>
				</port>
			</output>
		</layer>
		<layer id="47" name="/model.1/Constant_output_0" type="Const" version="opset1">
			<data element_type="i64" shape="5" offset="19616" size="40"/>
			<rt_info>
				<attribute name="fused_names" version="0" value="/model.1/Constant_output_0"/>
			</rt_info>
			<output>
				<port id="0" precision="I64" names="/model.1/Constant_output_0">
					<dim>5</dim>
				</port>
			</output>
		</layer>
		<layer id="48" name="/model.1/Reshape_output_0" type="Reshape" version="opset1">
			<data special_zero="true"/>
			<rt_info>
				<attribute name="fused_names" version="0" value="/model.1/Reshape_output_0"/>
			</rt_info>
			<input>
				<port id="0" precision="FP32">
					<dim>1</dim>
					<dim>64</dim>
					<dim>52</dim>
					<dim>52</dim>
				</port>
				<port id="1" precision="I64">
					<dim>5</dim>
				</port>
			</input>
			<output>
				<port id="2" precision="FP32" names="/model.1/Reshape_output_0">
					<dim>1</dim>
					<dim>2</dim>
					<dim>32</dim>
					<dim>52</dim>
					<dim>52</dim>
				</port>
			</output>
		</layer>
		<layer id="49" name="Constant_817" type="Const" version="opset1">
			<data element_type="i64" shape="5" offset="19656" size="40"/>
			<rt_info>
				<attribute name="fused_names" version="0" value="Constant_817"/>
			</rt_info>
			<output>
				<port id="0" precision="I64">
					<dim>5</dim>
				</port>
			</output>
		</layer>
		<layer id="50" name="/model.1/Transpose_output_0" type="Transpose" version="opset1">
			<rt_info>
				<attribute name="fused_names" version="0" value="/model.1/Transpose_output_0"/>
			</rt_info>
			<input>
				<port id="0" precision="FP32">
					<dim>1</dim>
					<dim>2</dim>
					<dim>32</dim>
					<dim>52</dim>
					<dim>52</dim>
				</port>
				<port id="1" precision="I64">
					<dim>5</dim>
				</port>
			</input>
			<output>
				<port id="2" precision="FP32" names="/model.1/Transpose_output_0">
					<dim>1</dim>
					<dim>32</dim>
					<dim>2</dim>
					<dim>52</dim>
					<dim>52</dim>
				</port>
			</output>
		</layer>
		<layer id="51" name="/model.1/Constant_1_output_0" type="Const" version="opset1">
			<data element_type="i64" shape="4" offset="19696" size="32"/>
			<rt_info>
				<attribute name="fused_names" version="0" value="/model.1/Constant_1_output_0"/>
			</rt_info>
			<output>
				<port id="0" precision="I64" names="/model.1/Constant_1_output_0">
					<dim>4</dim>
				</port>
			</output>
		</layer>
		<layer id="52" name="/model.1/Reshape_1_output_0" type="Reshape" version="opset1">
			<data special_zero="true"/>
			<rt_info>
				<attribute name="fused_names" version="0" value="/model.1/Reshape_1_output_0"/>
			</rt_info>
			<input>
				<port id="0" precision="FP32">
					<dim>1</dim>
					<dim>32</dim>
					<dim>2</dim>
					<dim>52</dim>
					<dim>52</dim>
				</port>
				<port id="1" precision="I64">
					<dim>4</dim>
				</port>
			</input>
			<output>
				<port id="2" precision="FP32" names="/model.1/Reshape_1_output_0">
					<dim>1</dim>
					<dim>64</dim>
					<dim>52</dim>
					<dim>52</dim>
				</port>
			</output>
		</layer>
		<layer id="53" name="Constant_13128" type="Const" version="opset1">
			<data element_type="i64" shape="2" offset="19728" size="16"/>
			<rt_info>
				<attribute name="fused_names" version="0" value="/model.2/model.2.0/Slice_output_0, Broadcast_827"/>
			</rt_info>
			<output>
				<port id="0" precision="I64">
					<dim>2</dim>
				</port>
			</output>
		</layer>
		<layer id="54" name="Constant_13131" type="Const" version="opset1">
			<data element_type="i64" shape="2" offset="19744" size="16"/>
			<rt_info>
				<attribute name="fused_names" version="0" value="/model.2/model.2.0/Slice_output_0, Broadcast_827"/>
			</rt_info>
			<output>
				<port id="0" precision="I64">
					<dim>2</dim>
				</port>
			</output>
		</layer>
		<layer id="55" name="Constant_13134" type="Const" version="opset1">
			<data element_type="i64" shape="2" offset="19760" size="16"/>
			<rt_info>
				<attribute name="fused_names" version="0" value="/model.2/model.2.0/Slice_output_0, Broadcast_827"/>
			</rt_info>
			<output>
				<port id="0" precision="I64">
					<dim>2</dim>
				</port>
			</output>
		</layer>
		<layer id="56" name="/model.2/model.2.0/Slice_output_0" type="StridedSlice" version="opset1">
			<data begin_mask="1, 0" end_mask="1, 0" new_axis_mask="" shrink_axis_mask="" ellipsis_mask=""/>
			<rt_info>
				<attribute name="fused_names" version="0" value="/model.2/model.2.0/Slice_output_0, Broadcast_827"/>
			</rt_info>
			<input>
				<port id="0" precision="FP32">
					<dim>1</dim>
					<dim>64</dim>
					<dim>52</dim>
					<dim>52</dim>
				</port>
				<port id="1" precision="I64">
					<dim>2</dim>
				</port>
				<port id="2" precision="I64">
					<dim>2</dim>
				</port>
				<port id="3" precision="I64">
					<dim>2</dim>
				</port>
			</input>
			<output>
				<port id="4" precision="FP32" names="/model.2/model.2.0/Slice_output_0">
					<dim>1</dim>
					<dim>32</dim>
					<dim>52</dim>
					<dim>52</dim>
				</port>
			</output>
		</layer>
		<layer id="57" name="Constant_13140" type="Const" version="opset1">
			<data element_type="i64" shape="2" offset="19744" size="16"/>
			<rt_info>
				<attribute name="fused_names" version="0" value="/model.2/model.2.0/Slice_1_output_0, Broadcast_846"/>
			</rt_info>
			<output>
				<port id="0" precision="I64">
					<dim>2</dim>
				</port>
			</output>
		</layer>
		<layer id="58" name="Constant_13143" type="Const" version="opset1">
			<data element_type="i64" shape="2" offset="19776" size="16"/>
			<rt_info>
				<attribute name="fused_names" version="0" value="/model.2/model.2.0/Slice_1_output_0, Broadcast_846"/>
			</rt_info>
			<output>
				<port id="0" precision="I64">
					<dim>2</dim>
				</port>
			</output>
		</layer>
		<layer id="59" name="Constant_13146" type="Const" version="opset1">
			<data element_type="i64" shape="2" offset="19760" size="16"/>
			<rt_info>
				<attribute name="fused_names" version="0" value="/model.2/model.2.0/Slice_1_output_0, Broadcast_846"/>
			</rt_info>
			<output>
				<port id="0" precision="I64">
					<dim>2</dim>
				</port>
			</output>
		</layer>
		<layer id="60" name="/model.2/model.2.0/Slice_1_output_0" type="StridedSlice" version="opset1">
			<data begin_mask="1, 0" end_mask="1, 0" new_axis_mask="" shrink_axis_mask="" ellipsis_mask=""/>
			<rt_info>
				<attribute name="fused_names" version="0" value="/model.2/model.2.0/Slice_1_output_0, Broadcast_846"/>
			</rt_info>
			<input>
				<port id="0" precision="FP32">
					<dim>1</dim>
					<dim>64</dim>
					<dim>52</dim>
					<dim>52</dim>
				</port>
				<port id="1" precision="I64">
					<dim>2</dim>
				</port>
				<port id="2" precision="I64">
					<dim>2</dim>
				</port>
				<port id="3" precision="I64">
					<dim>2</dim>
				</port>
			</input>
			<output>
				<port id="4" precision="FP32" names="/model.2/model.2.0/Slice_1_output_0">
					<dim>1</dim>
					<dim>32</dim>
					<dim>52</dim>
					<dim>52</dim>
				</port>
			</output>
		</layer>
		<layer id="61" name="onnx::Conv_1321" type="Const" version="opset1">
			<data element_type="f32" shape="32, 32, 1, 1" offset="19792" size="4096"/>
			<rt_info>
				<attribute name="fused_names" version="0" value="onnx::Conv_1321"/>
			</rt_info>
			<output>
				<port id="0" precision="FP32" names="onnx::Conv_1321">
					<dim>32</dim>
					<dim>32</dim>
					<dim>1</dim>
					<dim>1</dim>
				</port>
			</output>
		</layer>
		<layer id="62" name="Convolution_863" type="Convolution" version="opset1">
			<data strides="1, 1" dilations="1, 1" pads_begin="0, 0" pads_end="0, 0" auto_pad="explicit"/>
			<rt_info>
				<attribute name="fused_names" version="0" value="Convolution_863"/>
			</rt_info>
			<input>
				<port id="0" precision="FP32">
					<dim>1</dim>
					<dim>32</dim>
					<dim>52</dim>
					<dim>52</dim>
				</port>
				<port id="1" precision="FP32">
					<dim>32</dim>
					<dim>32</dim>
					<dim>1</dim>
					<dim>1</dim>
				</port>
			</input>
			<output>
				<port id="2" precision="FP32">
					<dim>1</dim>
					<dim>32</dim>
					<dim>52</dim>
					<dim>52</dim>
				</port>
			</output>
		</layer>
		<layer id="63" name="Reshape_883" type="Const" version="opset1">
			<data element_type="f32" shape="1, 32, 1, 1" offset="23888" size="128"/>
			<output>
				<port id="0" precision="FP32">
					<dim>1</dim>
					<dim>32</dim>
					<dim>1</dim>
					<dim>1</dim>
				</port>
			</output>
		</layer>
		<layer id="64" name="/model.2/model.2.0/branch2/branch2.0/Conv_output_0" type="Add" version="opset1">
			<data auto_broadcast="numpy"/>
			<rt_info>
				<attribute name="fused_names" version="0" value="/model.2/model.2.0/branch2/branch2.0/Conv_output_0, Concat_882, Reshape_883"/>
			</rt_info>
			<input>
				<port id="0" precision="FP32">
					<dim>1</dim>
					<dim>32</dim>
					<dim>52</dim>
					<dim>52</dim>
				</port>
				<port id="1" precision="FP32">
					<dim>1</dim>
					<dim>32</dim>
					<dim>1</dim>
					<dim>1</dim>
				</port>
			</input>
			<output>
				<port id="2" precision="FP32" names="/model.2/model.2.0/branch2/branch2.0/Conv_output_0">
					<dim>1</dim>
					<dim>32</dim>
					<dim>52</dim>
					<dim>52</dim>
				</port>
			</output>
		</layer>
		<layer id="65" name="/model.2/model.2.0/branch2/branch2.2/Mul_output_0" type="Swish" version="opset4">
			<rt_info>
				<attribute name="fused_names" version="0" value="/model.2/model.2.0/branch2/branch2.2/Mul_output_0, /model.2/model.2.0/branch2/branch2.2/Sigmoid_output_0"/>
			</rt_info>
			<input>
				<port id="0" precision="FP32">
					<dim>1</dim>
					<dim>32</dim>
					<dim>52</dim>
					<dim>52</dim>
				</port>
			</input>
			<output>
				<port id="1" precision="FP32" names="/model.2/model.2.0/branch2/branch2.2/Mul_output_0">
					<dim>1</dim>
					<dim>32</dim>
					<dim>52</dim>
					<dim>52</dim>
				</port>
			</output>
		</layer>
		<layer id="66" name="Reshape_920" type="Const" version="opset1">
			<data element_type="f32" shape="32, 1, 1, 3, 3" offset="24016" size="1152"/>
			<output>
				<port id="0" precision="FP32">
					<dim>32</dim>
					<dim>1</dim>
					<dim>1</dim>
					<dim>3</dim>
					<dim>3</dim>
				</port>
			</output>
		</layer>
		<layer id="67" name="GroupConvolution_986" type="GroupConvolution" version="opset1">
			<data strides="1, 1" pads_begin="1, 1" pads_end="1, 1" dilations="1, 1" auto_pad="explicit"/>
			<rt_info>
				<attribute name="fused_names" version="0" value="GroupConvolution_986, Reshape_920"/>
			</rt_info>
			<input>
				<port id="0" precision="FP32">
					<dim>1</dim>
					<dim>32</dim>
					<dim>52</dim>
					<dim>52</dim>
				</port>
				<port id="1" precision="FP32">
					<dim>32</dim>
					<dim>1</dim>
					<dim>1</dim>
					<dim>3</dim>
					<dim>3</dim>
				</port>
			</input>
			<output>
				<port id="2" precision="FP32">
					<dim>1</dim>
					<dim>32</dim>
					<dim>52</dim>
					<dim>52</dim>
				</port>
			</output>
		</layer>
		<layer id="68" name="Reshape_1006" type="Const" version="opset1">
			<data element_type="f32" shape="1, 32, 1, 1" offset="25168" size="128"/>
			<output>
				<port id="0" precision="FP32">
					<dim>1</dim>
					<dim>32</dim>
					<dim>1</dim>
					<dim>1</dim>
				</port>
			</output>
		</layer>
		<layer id="69" name="/model.2/model.2.0/branch2/branch2.3/Conv_output_0" type="Add" version="opset1">
			<data auto_broadcast="numpy"/>
			<rt_info>
				<attribute name="fused_names" version="0" value="/model.2/model.2.0/branch2/branch2.3/Conv_output_0, Concat_1005, Reshape_1006"/>
			</rt_info>
			<input>
				<port id="0" precision="FP32">
					<dim>1</dim>
					<dim>32</dim>
					<dim>52</dim>
					<dim>52</dim>
				</port>
				<port id="1" precision="FP32">
					<dim>1</dim>
					<dim>32</dim>
					<dim>1</dim>
					<dim>1</dim>
				</port>
			</input>
			<output>
				<port id="2" precision="FP32" names="/model.2/model.2.0/branch2/branch2.3/Conv_output_0">
					<dim>1</dim>
					<dim>32</dim>
					<dim>52</dim>
					<dim>52</dim>
				</port>
			</output>
		</layer>
		<layer id="70" name="onnx::Conv_1327" type="Const" version="opset1">
			<data element_type="f32" shape="32, 32, 1, 1" offset="25296" size="4096"/>
			<rt_info>
				<attribute name="fused_names" version="0" value="onnx::Conv_1327"/>
			</rt_info>
			<output>
				<port id="0" precision="FP32" names="onnx::Conv_1327">
					<dim>32</dim>
					<dim>32</dim>
					<dim>1</dim>
					<dim>1</dim>
				</port>
			</output>
		</layer>
		<layer id="71" name="Convolution_1034" type="Convolution" version="opset1">
			<data strides="1, 1" dilations="1, 1" pads_begin="0, 0" pads_end="0, 0" auto_pad="explicit"/>
			<rt_info>
				<attribute name="fused_names" version="0" value="Convolution_1034"/>
			</rt_info>
			<input>
				<port id="0" precision="FP32">
					<dim>1</dim>
					<dim>32</dim>
					<dim>52</dim>
					<dim>52</dim>
				</port>
				<port id="1" precision="FP32">
					<dim>32</dim>
					<dim>32</dim>
					<dim>1</dim>
					<dim>1</dim>
				</port>
			</input>
			<output>
				<port id="2" precision="FP32">
					<dim>1</dim>
					<dim>32</dim>
					<dim>52</dim>
					<dim>52</dim>
				</port>
			</output>
		</layer>
		<layer id="72" name="Reshape_1054" type="Const" version="opset1">
			<data element_type="f32" shape="1, 32, 1, 1" offset="29392" size="128"/>
			<output>
				<port id="0" precision="FP32">
					<dim>1</dim>
					<dim>32</dim>
					<dim>1</dim>
					<dim>1</dim>
				</port>
			</output>
		</layer>
		<layer id="73" name="/model.2/model.2.0/branch2/branch2.5/Conv_output_0" type="Add" version="opset1">
			<data auto_broadcast="numpy"/>
			<rt_info>
				<attribute name="fused_names" version="0" value="/model.2/model.2.0/branch2/branch2.5/Conv_output_0, Concat_1053, Reshape_1054"/>
			</rt_info>
			<input>
				<port id="0" precision="FP32">
					<dim>1</dim>
					<dim>32</dim>
					<dim>52</dim>
					<dim>52</dim>
				</port>
				<port id="1" precision="FP32">
					<dim>1</dim>
					<dim>32</dim>
					<dim>1</dim>
					<dim>1</dim>
				</port>
			</input>
			<output>
				<port id="2" precision="FP32" names="/model.2/model.2.0/branch2/branch2.5/Conv_output_0">
					<dim>1</dim>
					<dim>32</dim>
					<dim>52</dim>
					<dim>52</dim>
				</port>
			</output>
		</layer>
		<layer id="74" name="/model.2/model.2.0/branch2/branch2.7/Mul_output_0" type="Swish" version="opset4">
			<rt_info>
				<attribute name="fused_names" version="0" value="/model.2/model.2.0/branch2/branch2.7/Mul_output_0, /model.2/model.2.0/branch2/branch2.7/Sigmoid_output_0"/>
			</rt_info>
			<input>
				<port id="0" precision="FP32">
					<dim>1</dim>
					<dim>32</dim>
					<dim>52</dim>
					<dim>52</dim>
				</port>
			</input>
			<output>
				<port id="1" precision="FP32" names="/model.2/model.2.0/branch2/branch2.7/Mul_output_0">
					<dim>1</dim>
					<dim>32</dim>
					<dim>52</dim>
					<dim>52</dim>
				</port>
			</output>
		</layer>
		<layer id="75" name="/model.2/model.2.0/Concat_output_0" type="Concat" version="opset1">
			<data axis="1"/>
			<rt_info>
				<attribute name="fused_names" version="0" value="/model.2/model.2.0/Concat_output_0"/>
			</rt_info>
			<input>
				<port id="0" precision="FP32">
					<dim>1</dim>
					<dim>32</dim>
					<dim>52</dim>
					<dim>52</dim>
				</port>
				<port id="1" precision="FP32">
					<dim>1</dim>
					<dim>32</dim>
					<dim>52</dim>
					<dim>52</dim>
				</port>
			</input>
			<output>
				<port id="2" precision="FP32" names="/model.2/model.2.0/Concat_output_0">
					<dim>1</dim>
					<dim>64</dim>
					<dim>52</dim>
					<dim>52</dim>
				</port>
			</output>
		</layer>
		<layer id="76" name="/model.2/model.2.0/Reshape_output_0" type="Reshape" version="opset1">
			<data special_zero="true"/>
			<rt_info>
				<attribute name="fused_names" version="0" value="/model.2/model.2.0/Reshape_output_0"/>
			</rt_info>
			<input>
				<port id="0" precision="FP32">
					<dim>1</dim>
					<dim>64</dim>
					<dim>52</dim>
					<dim>52</dim>
				</port>
				<port id="1" precision="I64">
					<dim>5</dim>
				</port>
			</input>
			<output>
				<port id="2" precision="FP32" names="/model.2/model.2.0/Reshape_output_0">
					<dim>1</dim>
					<dim>2</dim>
					<dim>32</dim>
					<dim>52</dim>
					<dim>52</dim>
				</port>
			</output>
		</layer>
		<layer id="77" name="Constant_1088" type="Const" version="opset1">
			<data element_type="i64" shape="5" offset="19656" size="40"/>
			<rt_info>
				<attribute name="fused_names" version="0" value="Constant_1088"/>
			</rt_info>
			<output>
				<port id="0" precision="I64">
					<dim>5</dim>
				</port>
			</output>
		</layer>
		<layer id="78" name="/model.2/model.2.0/Transpose_output_0" type="Transpose" version="opset1">
			<rt_info>
				<attribute name="fused_names" version="0" value="/model.2/model.2.0/Transpose_output_0"/>
			</rt_info>
			<input>
				<port id="0" precision="FP32">
					<dim>1</dim>
					<dim>2</dim>
					<dim>32</dim>
					<dim>52</dim>
					<dim>52</dim>
				</port>
				<port id="1" precision="I64">
					<dim>5</dim>
				</port>
			</input>
			<output>
				<port id="2" precision="FP32" names="/model.2/model.2.0/Transpose_output_0">
					<dim>1</dim>
					<dim>32</dim>
					<dim>2</dim>
					<dim>52</dim>
					<dim>52</dim>
				</port>
			</output>
		</layer>
		<layer id="79" name="/model.2/model.2.0/Reshape_1_output_0" type="Reshape" version="opset1">
			<data special_zero="true"/>
			<rt_info>
				<attribute name="fused_names" version="0" value="/model.2/model.2.0/Reshape_1_output_0"/>
			</rt_info>
			<input>
				<port id="0" precision="FP32">
					<dim>1</dim>
					<dim>32</dim>
					<dim>2</dim>
					<dim>52</dim>
					<dim>52</dim>
				</port>
				<port id="1" precision="I64">
					<dim>4</dim>
				</port>
			</input>
			<output>
				<port id="2" precision="FP32" names="/model.2/model.2.0/Reshape_1_output_0">
					<dim>1</dim>
					<dim>64</dim>
					<dim>52</dim>
					<dim>52</dim>
				</port>
			</output>
		</layer>
		<layer id="80" name="Constant_13152" type="Const" version="opset1">
			<data element_type="i64" shape="2" offset="19728" size="16"/>
			<rt_info>
				<attribute name="fused_names" version="0" value="/model.2/model.2.1/Slice_output_0, Broadcast_1095"/>
			</rt_info>
			<output>
				<port id="0" precision="I64">
					<dim>2</dim>
				</port>
			</output>
		</layer>
		<layer id="81" name="Constant_13155" type="Const" version="opset1">
			<data element_type="i64" shape="2" offset="19744" size="16"/>
			<rt_info>
				<attribute name="fused_names" version="0" value="/model.2/model.2.1/Slice_output_0, Broadcast_1095"/>
			</rt_info>
			<output>
				<port id="0" precision="I64">
					<dim>2</dim>
				</port>
			</output>
		</layer>
		<layer id="82" name="Constant_13158" type="Const" version="opset1">
			<data element_type="i64" shape="2" offset="19760" size="16"/>
			<rt_info>
				<attribute name="fused_names" version="0" value="/model.2/model.2.1/Slice_output_0, Broadcast_1095"/>
			</rt_info>
			<output>
				<port id="0" precision="I64">
					<dim>2</dim>
				</port>
			</output>
		</layer>
		<layer id="83" name="/model.2/model.2.1/Slice_output_0" type="StridedSlice" version="opset1">
			<data begin_mask="1, 0" end_mask="1, 0" new_axis_mask="" shrink_axis_mask="" ellipsis_mask=""/>
			<rt_info>
				<attribute name="fused_names" version="0" value="/model.2/model.2.1/Slice_output_0, Broadcast_1095"/>
			</rt_info>
			<input>
				<port id="0" precision="FP32">
					<dim>1</dim>
					<dim>64</dim>
					<dim>52</dim>
					<dim>52</dim>
				</port>
				<port id="1" precision="I64">
					<dim>2</dim>
				</port>
				<port id="2" precision="I64">
					<dim>2</dim>
				</port>
				<port id="3" precision="I64">
					<dim>2</dim>
				</port>
			</input>
			<output>
				<port id="4" precision="FP32" names="/model.2/model.2.1/Slice_output_0">
					<dim>1</dim>
					<dim>32</dim>
					<dim>52</dim>
					<dim>52</dim>
				</port>
			</output>
		</layer>
		<layer id="84" name="Constant_13164" type="Const" version="opset1">
			<data element_type="i64" shape="2" offset="19744" size="16"/>
			<rt_info>
				<attribute name="fused_names" version="0" value="/model.2/model.2.1/Slice_1_output_0, Broadcast_1114"/>
			</rt_info>
			<output>
				<port id="0" precision="I64">
					<dim>2</dim>
				</port>
			</output>
		</layer>
		<layer id="85" name="Constant_13167" type="Const" version="opset1">
			<data element_type="i64" shape="2" offset="19776" size="16"/>
			<rt_info>
				<attribute name="fused_names" version="0" value="/model.2/model.2.1/Slice_1_output_0, Broadcast_1114"/>
			</rt_info>
			<output>
				<port id="0" precision="I64">
					<dim>2</dim>
				</port>
			</output>
		</layer>
		<layer id="86" name="Constant_13170" type="Const" version="opset1">
			<data element_type="i64" shape="2" offset="19760" size="16"/>
			<rt_info>
				<attribute name="fused_names" version="0" value="/model.2/model.2.1/Slice_1_output_0, Broadcast_1114"/>
			</rt_info>
			<output>
				<port id="0" precision="I64">
					<dim>2</dim>
				</port>
			</output>
		</layer>
		<layer id="87" name="/model.2/model.2.1/Slice_1_output_0" type="StridedSlice" version="opset1">
			<data begin_mask="1, 0" end_mask="1, 0" new_axis_mask="" shrink_axis_mask="" ellipsis_mask=""/>
			<rt_info>
				<attribute name="fused_names" version="0" value="/model.2/model.2.1/Slice_1_output_0, Broadcast_1114"/>
			</rt_info>
			<input>
				<port id="0" precision="FP32">
					<dim>1</dim>
					<dim>64</dim>
					<dim>52</dim>
					<dim>52</dim>
				</port>
				<port id="1" precision="I64">
					<dim>2</dim>
				</port>
				<port id="2" precision="I64">
					<dim>2</dim>
				</port>
				<port id="3" precision="I64">
					<dim>2</dim>
				</port>
			</input>
			<output>
				<port id="4" precision="FP32" names="/model.2/model.2.1/Slice_1_output_0">
					<dim>1</dim>
					<dim>32</dim>
					<dim>52</dim>
					<dim>52</dim>
				</port>
			</output>
		</layer>
		<layer id="88" name="onnx::Conv_1330" type="Const" version="opset1">
			<data element_type="f32" shape="32, 32, 1, 1" offset="29520" size="4096"/>
			<rt_info>
				<attribute name="fused_names" version="0" value="onnx::Conv_1330"/>
			</rt_info>
			<output>
				<port id="0" precision="FP32" names="onnx::Conv_1330">
					<dim>32</dim>
					<dim>32</dim>
					<dim>1</dim>
					<dim>1</dim>
				</port>
			</output>
		</layer>
		<layer id="89" name="Convolution_1131" type="Convolution" version="opset1">
			<data strides="1, 1" dilations="1, 1" pads_begin="0, 0" pads_end="0, 0" auto_pad="explicit"/>
			<rt_info>
				<attribute name="fused_names" version="0" value="Convolution_1131"/>
			</rt_info>
			<input>
				<port id="0" precision="FP32">
					<dim>1</dim>
					<dim>32</dim>
					<dim>52</dim>
					<dim>52</dim>
				</port>
				<port id="1" precision="FP32">
					<dim>32</dim>
					<dim>32</dim>
					<dim>1</dim>
					<dim>1</dim>
				</port>
			</input>
			<output>
				<port id="2" precision="FP32">
					<dim>1</dim>
					<dim>32</dim>
					<dim>52</dim>
					<dim>52</dim>
				</port>
			</output>
		</layer>
		<layer id="90" name="Reshape_1151" type="Const" version="opset1">
			<data element_type="f32" shape="1, 32, 1, 1" offset="33616" size="128"/>
			<output>
				<port id="0" precision="FP32">
					<dim>1</dim>
					<dim>32</dim>
					<dim>1</dim>
					<dim>1</dim>
				</port>
			</output>
		</layer>
		<layer id="91" name="/model.2/model.2.1/branch2/branch2.0/Conv_output_0" type="Add" version="opset1">
			<data auto_broadcast="numpy"/>
			<rt_info>
				<attribute name="fused_names" version="0" value="/model.2/model.2.1/branch2/branch2.0/Conv_output_0, Concat_1150, Reshape_1151"/>
			</rt_info>
			<input>
				<port id="0" precision="FP32">
					<dim>1</dim>
					<dim>32</dim>
					<dim>52</dim>
					<dim>52</dim>
				</port>
				<port id="1" precision="FP32">
					<dim>1</dim>
					<dim>32</dim>
					<dim>1</dim>
					<dim>1</dim>
				</port>
			</input>
			<output>
				<port id="2" precision="FP32" names="/model.2/model.2.1/branch2/branch2.0/Conv_output_0">
					<dim>1</dim>
					<dim>32</dim>
					<dim>52</dim>
					<dim>52</dim>
				</port>
			</output>
		</layer>
		<layer id="92" name="/model.2/model.2.1/branch2/branch2.2/Mul_output_0" type="Swish" version="opset4">
			<rt_info>
				<attribute name="fused_names" version="0" value="/model.2/model.2.1/branch2/branch2.2/Mul_output_0, /model.2/model.2.1/branch2/branch2.2/Sigmoid_output_0"/>
			</rt_info>
			<input>
				<port id="0" precision="FP32">
					<dim>1</dim>
					<dim>32</dim>
					<dim>52</dim>
					<dim>52</dim>
				</port>
			</input>
			<output>
				<port id="1" precision="FP32" names="/model.2/model.2.1/branch2/branch2.2/Mul_output_0">
					<dim>1</dim>
					<dim>32</dim>
					<dim>52</dim>
					<dim>52</dim>
				</port>
			</output>
		</layer>
		<layer id="93" name="Reshape_1188" type="Const" version="opset1">
			<data element_type="f32" shape="32, 1, 1, 3, 3" offset="33744" size="1152"/>
			<output>
				<port id="0" precision="FP32">
					<dim>32</dim>
					<dim>1</dim>
					<dim>1</dim>
					<dim>3</dim>
					<dim>3</dim>
				</port>
			</output>
		</layer>
		<layer id="94" name="GroupConvolution_1254" type="GroupConvolution" version="opset1">
			<data strides="1, 1" pads_begin="1, 1" pads_end="1, 1" dilations="1, 1" auto_pad="explicit"/>
			<rt_info>
				<attribute name="fused_names" version="0" value="GroupConvolution_1254, Reshape_1188"/>
			</rt_info>
			<input>
				<port id="0" precision="FP32">
					<dim>1</dim>
					<dim>32</dim>
					<dim>52</dim>
					<dim>52</dim>
				</port>
				<port id="1" precision="FP32">
					<dim>32</dim>
					<dim>1</dim>
					<dim>1</dim>
					<dim>3</dim>
					<dim>3</dim>
				</port>
			</input>
			<output>
				<port id="2" precision="FP32">
					<dim>1</dim>
					<dim>32</dim>
					<dim>52</dim>
					<dim>52</dim>
				</port>
			</output>
		</layer>
		<layer id="95" name="Reshape_1274" type="Const" version="opset1">
			<data element_type="f32" shape="1, 32, 1, 1" offset="34896" size="128"/>
			<output>
				<port id="0" precision="FP32">
					<dim>1</dim>
					<dim>32</dim>
					<dim>1</dim>
					<dim>1</dim>
				</port>
			</output>
		</layer>
		<layer id="96" name="/model.2/model.2.1/branch2/branch2.3/Conv_output_0" type="Add" version="opset1">
			<data auto_broadcast="numpy"/>
			<rt_info>
				<attribute name="fused_names" version="0" value="/model.2/model.2.1/branch2/branch2.3/Conv_output_0, Concat_1273, Reshape_1274"/>
			</rt_info>
			<input>
				<port id="0" precision="FP32">
					<dim>1</dim>
					<dim>32</dim>
					<dim>52</dim>
					<dim>52</dim>
				</port>
				<port id="1" precision="FP32">
					<dim>1</dim>
					<dim>32</dim>
					<dim>1</dim>
					<dim>1</dim>
				</port>
			</input>
			<output>
				<port id="2" precision="FP32" names="/model.2/model.2.1/branch2/branch2.3/Conv_output_0">
					<dim>1</dim>
					<dim>32</dim>
					<dim>52</dim>
					<dim>52</dim>
				</port>
			</output>
		</layer>
		<layer id="97" name="onnx::Conv_1336" type="Const" version="opset1">
			<data element_type="f32" shape="32, 32, 1, 1" offset="35024" size="4096"/>
			<rt_info>
				<attribute name="fused_names" version="0" value="onnx::Conv_1336"/>
			</rt_info>
			<output>
				<port id="0" precision="FP32" names="onnx::Conv_1336">
					<dim>32</dim>
					<dim>32</dim>
					<dim>1</dim>
					<dim>1</dim>
				</port>
			</output>
		</layer>
		<layer id="98" name="Convolution_1302" type="Convolution" version="opset1">
			<data strides="1, 1" dilations="1, 1" pads_begin="0, 0" pads_end="0, 0" auto_pad="explicit"/>
			<rt_info>
				<attribute name="fused_names" version="0" value="Convolution_1302"/>
			</rt_info>
			<input>
				<port id="0" precision="FP32">
					<dim>1</dim>
					<dim>32</dim>
					<dim>52</dim>
					<dim>52</dim>
				</port>
				<port id="1" precision="FP32">
					<dim>32</dim>
					<dim>32</dim>
					<dim>1</dim>
					<dim>1</dim>
				</port>
			</input>
			<output>
				<port id="2" precision="FP32">
					<dim>1</dim>
					<dim>32</dim>
					<dim>52</dim>
					<dim>52</dim>
				</port>
			</output>
		</layer>
		<layer id="99" name="Reshape_1322" type="Const" version="opset1">
			<data element_type="f32" shape="1, 32, 1, 1" offset="39120" size="128"/>
			<output>
				<port id="0" precision="FP32">
					<dim>1</dim>
					<dim>32</dim>
					<dim>1</dim>
					<dim>1</dim>
				</port>
			</output>
		</layer>
		<layer id="100" name="/model.2/model.2.1/branch2/branch2.5/Conv_output_0" type="Add" version="opset1">
			<data auto_broadcast="numpy"/>
			<rt_info>
				<attribute name="fused_names" version="0" value="/model.2/model.2.1/branch2/branch2.5/Conv_output_0, Concat_1321, Reshape_1322"/>
			</rt_info>
			<input>
				<port id="0" precision="FP32">
					<dim>1</dim>
					<dim>32</dim>
					<dim>52</dim>
					<dim>52</dim>
				</port>
				<port id="1" precision="FP32">
					<dim>1</dim>
					<dim>32</dim>
					<dim>1</dim>
					<dim>1</dim>
				</port>
			</input>
			<output>
				<port id="2" precision="FP32" names="/model.2/model.2.1/branch2/branch2.5/Conv_output_0">
					<dim>1</dim>
					<dim>32</dim>
					<dim>52</dim>
					<dim>52</dim>
				</port>
			</output>
		</layer>
		<layer id="101" name="/model.2/model.2.1/branch2/branch2.7/Mul_output_0" type="Swish" version="opset4">
			<rt_info>
				<attribute name="fused_names" version="0" value="/model.2/model.2.1/branch2/branch2.7/Mul_output_0, /model.2/model.2.1/branch2/branch2.7/Sigmoid_output_0"/>
			</rt_info>
			<input>
				<port id="0" precision="FP32">
					<dim>1</dim>
					<dim>32</dim>
					<dim>52</dim>
					<dim>52</dim>
				</port>
			</input>
			<output>
				<port id="1" precision="FP32" names="/model.2/model.2.1/branch2/branch2.7/Mul_output_0">
					<dim>1</dim>
					<dim>32</dim>
					<dim>52</dim>
					<dim>52</dim>
				</port>
			</output>
		</layer>
		<layer id="102" name="/model.2/model.2.1/Concat_output_0" type="Concat" version="opset1">
			<data axis="1"/>
			<rt_info>
				<attribute name="fused_names" version="0" value="/model.2/model.2.1/Concat_output_0"/>
			</rt_info>
			<input>
				<port id="0" precision="FP32">
					<dim>1</dim>
					<dim>32</dim>
					<dim>52</dim>
					<dim>52</dim>
				</port>
				<port id="1" precision="FP32">
					<dim>1</dim>
					<dim>32</dim>
					<dim>52</dim>
					<dim>52</dim>
				</port>
			</input>
			<output>
				<port id="2" precision="FP32" names="/model.2/model.2.1/Concat_output_0">
					<dim>1</dim>
					<dim>64</dim>
					<dim>52</dim>
					<dim>52</dim>
				</port>
			</output>
		</layer>
		<layer id="103" name="/model.2/model.2.1/Reshape_output_0" type="Reshape" version="opset1">
			<data special_zero="true"/>
			<rt_info>
				<attribute name="fused_names" version="0" value="/model.2/model.2.1/Reshape_output_0"/>
			</rt_info>
			<input>
				<port id="0" precision="FP32">
					<dim>1</dim>
					<dim>64</dim>
					<dim>52</dim>
					<dim>52</dim>
				</port>
				<port id="1" precision="I64">
					<dim>5</dim>
				</port>
			</input>
			<output>
				<port id="2" precision="FP32" names="/model.2/model.2.1/Reshape_output_0">
					<dim>1</dim>
					<dim>2</dim>
					<dim>32</dim>
					<dim>52</dim>
					<dim>52</dim>
				</port>
			</output>
		</layer>
		<layer id="104" name="Constant_1356" type="Const" version="opset1">
			<data element_type="i64" shape="5" offset="19656" size="40"/>
			<rt_info>
				<attribute name="fused_names" version="0" value="Constant_1356"/>
			</rt_info>
			<output>
				<port id="0" precision="I64">
					<dim>5</dim>
				</port>
			</output>
		</layer>
		<layer id="105" name="/model.2/model.2.1/Transpose_output_0" type="Transpose" version="opset1">
			<rt_info>
				<attribute name="fused_names" version="0" value="/model.2/model.2.1/Transpose_output_0"/>
			</rt_info>
			<input>
				<port id="0" precision="FP32">
					<dim>1</dim>
					<dim>2</dim>
					<dim>32</dim>
					<dim>52</dim>
					<dim>52</dim>
				</port>
				<port id="1" precision="I64">
					<dim>5</dim>
				</port>
			</input>
			<output>
				<port id="2" precision="FP32" names="/model.2/model.2.1/Transpose_output_0">
					<dim>1</dim>
					<dim>32</dim>
					<dim>2</dim>
					<dim>52</dim>
					<dim>52</dim>
				</port>
			</output>
		</layer>
		<layer id="106" name="/model.2/model.2.1/Reshape_1_output_0" type="Reshape" version="opset1">
			<data special_zero="true"/>
			<rt_info>
				<attribute name="fused_names" version="0" value="/model.2/model.2.1/Reshape_1_output_0"/>
			</rt_info>
			<input>
				<port id="0" precision="FP32">
					<dim>1</dim>
					<dim>32</dim>
					<dim>2</dim>
					<dim>52</dim>
					<dim>52</dim>
				</port>
				<port id="1" precision="I64">
					<dim>4</dim>
				</port>
			</input>
			<output>
				<port id="2" precision="FP32" names="/model.2/model.2.1/Reshape_1_output_0">
					<dim>1</dim>
					<dim>64</dim>
					<dim>52</dim>
					<dim>52</dim>
				</port>
			</output>
		</layer>
		<layer id="107" name="Constant_13176" type="Const" version="opset1">
			<data element_type="i64" shape="2" offset="19728" size="16"/>
			<rt_info>
				<attribute name="fused_names" version="0" value="/model.2/model.2.2/Slice_output_0, Broadcast_1363"/>
			</rt_info>
			<output>
				<port id="0" precision="I64">
					<dim>2</dim>
				</port>
			</output>
		</layer>
		<layer id="108" name="Constant_13179" type="Const" version="opset1">
			<data element_type="i64" shape="2" offset="19744" size="16"/>
			<rt_info>
				<attribute name="fused_names" version="0" value="/model.2/model.2.2/Slice_output_0, Broadcast_1363"/>
			</rt_info>
			<output>
				<port id="0" precision="I64">
					<dim>2</dim>
				</port>
			</output>
		</layer>
		<layer id="109" name="Constant_13182" type="Const" version="opset1">
			<data element_type="i64" shape="2" offset="19760" size="16"/>
			<rt_info>
				<attribute name="fused_names" version="0" value="/model.2/model.2.2/Slice_output_0, Broadcast_1363"/>
			</rt_info>
			<output>
				<port id="0" precision="I64">
					<dim>2</dim>
				</port>
			</output>
		</layer>
		<layer id="110" name="/model.2/model.2.2/Slice_output_0" type="StridedSlice" version="opset1">
			<data begin_mask="1, 0" end_mask="1, 0" new_axis_mask="" shrink_axis_mask="" ellipsis_mask=""/>
			<rt_info>
				<attribute name="fused_names" version="0" value="/model.2/model.2.2/Slice_output_0, Broadcast_1363"/>
			</rt_info>
			<input>
				<port id="0" precision="FP32">
					<dim>1</dim>
					<dim>64</dim>
					<dim>52</dim>
					<dim>52</dim>
				</port>
				<port id="1" precision="I64">
					<dim>2</dim>
				</port>
				<port id="2" precision="I64">
					<dim>2</dim>
				</port>
				<port id="3" precision="I64">
					<dim>2</dim>
				</port>
			</input>
			<output>
				<port id="4" precision="FP32" names="/model.2/model.2.2/Slice_output_0">
					<dim>1</dim>
					<dim>32</dim>
					<dim>52</dim>
					<dim>52</dim>
				</port>
			</output>
		</layer>
		<layer id="111" name="Constant_13188" type="Const" version="opset1">
			<data element_type="i64" shape="2" offset="19744" size="16"/>
			<rt_info>
				<attribute name="fused_names" version="0" value="/model.2/model.2.2/Slice_1_output_0, Broadcast_1382"/>
			</rt_info>
			<output>
				<port id="0" precision="I64">
					<dim>2</dim>
				</port>
			</output>
		</layer>
		<layer id="112" name="Constant_13191" type="Const" version="opset1">
			<data element_type="i64" shape="2" offset="19776" size="16"/>
			<rt_info>
				<attribute name="fused_names" version="0" value="/model.2/model.2.2/Slice_1_output_0, Broadcast_1382"/>
			</rt_info>
			<output>
				<port id="0" precision="I64">
					<dim>2</dim>
				</port>
			</output>
		</layer>
		<layer id="113" name="Constant_13194" type="Const" version="opset1">
			<data element_type="i64" shape="2" offset="19760" size="16"/>
			<rt_info>
				<attribute name="fused_names" version="0" value="/model.2/model.2.2/Slice_1_output_0, Broadcast_1382"/>
			</rt_info>
			<output>
				<port id="0" precision="I64">
					<dim>2</dim>
				</port>
			</output>
		</layer>
		<layer id="114" name="/model.2/model.2.2/Slice_1_output_0" type="StridedSlice" version="opset1">
			<data begin_mask="1, 0" end_mask="1, 0" new_axis_mask="" shrink_axis_mask="" ellipsis_mask=""/>
			<rt_info>
				<attribute name="fused_names" version="0" value="/model.2/model.2.2/Slice_1_output_0, Broadcast_1382"/>
			</rt_info>
			<input>
				<port id="0" precision="FP32">
					<dim>1</dim>
					<dim>64</dim>
					<dim>52</dim>
					<dim>52</dim>
				</port>
				<port id="1" precision="I64">
					<dim>2</dim>
				</port>
				<port id="2" precision="I64">
					<dim>2</dim>
				</port>
				<port id="3" precision="I64">
					<dim>2</dim>
				</port>
			</input>
			<output>
				<port id="4" precision="FP32" names="/model.2/model.2.2/Slice_1_output_0">
					<dim>1</dim>
					<dim>32</dim>
					<dim>52</dim>
					<dim>52</dim>
				</port>
			</output>
		</layer>
		<layer id="115" name="onnx::Conv_1339" type="Const" version="opset1">
			<data element_type="f32" shape="32, 32, 1, 1" offset="39248" size="4096"/>
			<rt_info>
				<attribute name="fused_names" version="0" value="onnx::Conv_1339"/>
			</rt_info>
			<output>
				<port id="0" precision="FP32" names="onnx::Conv_1339">
					<dim>32</dim>
					<dim>32</dim>
					<dim>1</dim>
					<dim>1</dim>
				</port>
			</output>
		</layer>
		<layer id="116" name="Convolution_1399" type="Convolution" version="opset1">
			<data strides="1, 1" dilations="1, 1" pads_begin="0, 0" pads_end="0, 0" auto_pad="explicit"/>
			<rt_info>
				<attribute name="fused_names" version="0" value="Convolution_1399"/>
			</rt_info>
			<input>
				<port id="0" precision="FP32">
					<dim>1</dim>
					<dim>32</dim>
					<dim>52</dim>
					<dim>52</dim>
				</port>
				<port id="1" precision="FP32">
					<dim>32</dim>
					<dim>32</dim>
					<dim>1</dim>
					<dim>1</dim>
				</port>
			</input>
			<output>
				<port id="2" precision="FP32">
					<dim>1</dim>
					<dim>32</dim>
					<dim>52</dim>
					<dim>52</dim>
				</port>
			</output>
		</layer>
		<layer id="117" name="Reshape_1419" type="Const" version="opset1">
			<data element_type="f32" shape="1, 32, 1, 1" offset="43344" size="128"/>
			<output>
				<port id="0" precision="FP32">
					<dim>1</dim>
					<dim>32</dim>
					<dim>1</dim>
					<dim>1</dim>
				</port>
			</output>
		</layer>
		<layer id="118" name="/model.2/model.2.2/branch2/branch2.0/Conv_output_0" type="Add" version="opset1">
			<data auto_broadcast="numpy"/>
			<rt_info>
				<attribute name="fused_names" version="0" value="/model.2/model.2.2/branch2/branch2.0/Conv_output_0, Concat_1418, Reshape_1419"/>
			</rt_info>
			<input>
				<port id="0" precision="FP32">
					<dim>1</dim>
					<dim>32</dim>
					<dim>52</dim>
					<dim>52</dim>
				</port>
				<port id="1" precision="FP32">
					<dim>1</dim>
					<dim>32</dim>
					<dim>1</dim>
					<dim>1</dim>
				</port>
			</input>
			<output>
				<port id="2" precision="FP32" names="/model.2/model.2.2/branch2/branch2.0/Conv_output_0">
					<dim>1</dim>
					<dim>32</dim>
					<dim>52</dim>
					<dim>52</dim>
				</port>
			</output>
		</layer>
		<layer id="119" name="/model.2/model.2.2/branch2/branch2.2/Mul_output_0" type="Swish" version="opset4">
			<rt_info>
				<attribute name="fused_names" version="0" value="/model.2/model.2.2/branch2/branch2.2/Mul_output_0, /model.2/model.2.2/branch2/branch2.2/Sigmoid_output_0"/>
			</rt_info>
			<input>
				<port id="0" precision="FP32">
					<dim>1</dim>
					<dim>32</dim>
					<dim>52</dim>
					<dim>52</dim>
				</port>
			</input>
			<output>
				<port id="1" precision="FP32" names="/model.2/model.2.2/branch2/branch2.2/Mul_output_0">
					<dim>1</dim>
					<dim>32</dim>
					<dim>52</dim>
					<dim>52</dim>
				</port>
			</output>
		</layer>
		<layer id="120" name="Reshape_1456" type="Const" version="opset1">
			<data element_type="f32" shape="32, 1, 1, 3, 3" offset="43472" size="1152"/>
			<output>
				<port id="0" precision="FP32">
					<dim>32</dim>
					<dim>1</dim>
					<dim>1</dim>
					<dim>3</dim>
					<dim>3</dim>
				</port>
			</output>
		</layer>
		<layer id="121" name="GroupConvolution_1522" type="GroupConvolution" version="opset1">
			<data strides="1, 1" pads_begin="1, 1" pads_end="1, 1" dilations="1, 1" auto_pad="explicit"/>
			<rt_info>
				<attribute name="fused_names" version="0" value="GroupConvolution_1522, Reshape_1456"/>
			</rt_info>
			<input>
				<port id="0" precision="FP32">
					<dim>1</dim>
					<dim>32</dim>
					<dim>52</dim>
					<dim>52</dim>
				</port>
				<port id="1" precision="FP32">
					<dim>32</dim>
					<dim>1</dim>
					<dim>1</dim>
					<dim>3</dim>
					<dim>3</dim>
				</port>
			</input>
			<output>
				<port id="2" precision="FP32">
					<dim>1</dim>
					<dim>32</dim>
					<dim>52</dim>
					<dim>52</dim>
				</port>
			</output>
		</layer>
		<layer id="122" name="Reshape_1542" type="Const" version="opset1">
			<data element_type="f32" shape="1, 32, 1, 1" offset="44624" size="128"/>
			<output>
				<port id="0" precision="FP32">
					<dim>1</dim>
					<dim>32</dim>
					<dim>1</dim>
					<dim>1</dim>
				</port>
			</output>
		</layer>
		<layer id="123" name="/model.2/model.2.2/branch2/branch2.3/Conv_output_0" type="Add" version="opset1">
			<data auto_broadcast="numpy"/>
			<rt_info>
				<attribute name="fused_names" version="0" value="/model.2/model.2.2/branch2/branch2.3/Conv_output_0, Concat_1541, Reshape_1542"/>
			</rt_info>
			<input>
				<port id="0" precision="FP32">
					<dim>1</dim>
					<dim>32</dim>
					<dim>52</dim>
					<dim>52</dim>
				</port>
				<port id="1" precision="FP32">
					<dim>1</dim>
					<dim>32</dim>
					<dim>1</dim>
					<dim>1</dim>
				</port>
			</input>
			<output>
				<port id="2" precision="FP32" names="/model.2/model.2.2/branch2/branch2.3/Conv_output_0">
					<dim>1</dim>
					<dim>32</dim>
					<dim>52</dim>
					<dim>52</dim>
				</port>
			</output>
		</layer>
		<layer id="124" name="onnx::Conv_1345" type="Const" version="opset1">
			<data element_type="f32" shape="32, 32, 1, 1" offset="44752" size="4096"/>
			<rt_info>
				<attribute name="fused_names" version="0" value="onnx::Conv_1345"/>
			</rt_info>
			<output>
				<port id="0" precision="FP32" names="onnx::Conv_1345">
					<dim>32</dim>
					<dim>32</dim>
					<dim>1</dim>
					<dim>1</dim>
				</port>
			</output>
		</layer>
		<layer id="125" name="Convolution_1570" type="Convolution" version="opset1">
			<data strides="1, 1" dilations="1, 1" pads_begin="0, 0" pads_end="0, 0" auto_pad="explicit"/>
			<rt_info>
				<attribute name="fused_names" version="0" value="Convolution_1570"/>
			</rt_info>
			<input>
				<port id="0" precision="FP32">
					<dim>1</dim>
					<dim>32</dim>
					<dim>52</dim>
					<dim>52</dim>
				</port>
				<port id="1" precision="FP32">
					<dim>32</dim>
					<dim>32</dim>
					<dim>1</dim>
					<dim>1</dim>
				</port>
			</input>
			<output>
				<port id="2" precision="FP32">
					<dim>1</dim>
					<dim>32</dim>
					<dim>52</dim>
					<dim>52</dim>
				</port>
			</output>
		</layer>
		<layer id="126" name="Reshape_1590" type="Const" version="opset1">
			<data element_type="f32" shape="1, 32, 1, 1" offset="48848" size="128"/>
			<output>
				<port id="0" precision="FP32">
					<dim>1</dim>
					<dim>32</dim>
					<dim>1</dim>
					<dim>1</dim>
				</port>
			</output>
		</layer>
		<layer id="127" name="/model.2/model.2.2/branch2/branch2.5/Conv_output_0" type="Add" version="opset1">
			<data auto_broadcast="numpy"/>
			<rt_info>
				<attribute name="fused_names" version="0" value="/model.2/model.2.2/branch2/branch2.5/Conv_output_0, Concat_1589, Reshape_1590"/>
			</rt_info>
			<input>
				<port id="0" precision="FP32">
					<dim>1</dim>
					<dim>32</dim>
					<dim>52</dim>
					<dim>52</dim>
				</port>
				<port id="1" precision="FP32">
					<dim>1</dim>
					<dim>32</dim>
					<dim>1</dim>
					<dim>1</dim>
				</port>
			</input>
			<output>
				<port id="2" precision="FP32" names="/model.2/model.2.2/branch2/branch2.5/Conv_output_0">
					<dim>1</dim>
					<dim>32</dim>
					<dim>52</dim>
					<dim>52</dim>
				</port>
			</output>
		</layer>
		<layer id="128" name="/model.2/model.2.2/branch2/branch2.7/Mul_output_0" type="Swish" version="opset4">
			<rt_info>
				<attribute name="fused_names" version="0" value="/model.2/model.2.2/branch2/branch2.7/Mul_output_0, /model.2/model.2.2/branch2/branch2.7/Sigmoid_output_0"/>
			</rt_info>
			<input>
				<port id="0" precision="FP32">
					<dim>1</dim>
					<dim>32</dim>
					<dim>52</dim>
					<dim>52</dim>
				</port>
			</input>
			<output>
				<port id="1" precision="FP32" names="/model.2/model.2.2/branch2/branch2.7/Mul_output_0">
					<dim>1</dim>
					<dim>32</dim>
					<dim>52</dim>
					<dim>52</dim>
				</port>
			</output>
		</layer>
		<layer id="129" name="/model.2/model.2.2/Concat_output_0" type="Concat" version="opset1">
			<data axis="1"/>
			<rt_info>
				<attribute name="fused_names" version="0" value="/model.2/model.2.2/Concat_output_0"/>
			</rt_info>
			<input>
				<port id="0" precision="FP32">
					<dim>1</dim>
					<dim>32</dim>
					<dim>52</dim>
					<dim>52</dim>
				</port>
				<port id="1" precision="FP32">
					<dim>1</dim>
					<dim>32</dim>
					<dim>52</dim>
					<dim>52</dim>
				</port>
			</input>
			<output>
				<port id="2" precision="FP32" names="/model.2/model.2.2/Concat_output_0">
					<dim>1</dim>
					<dim>64</dim>
					<dim>52</dim>
					<dim>52</dim>
				</port>
			</output>
		</layer>
		<layer id="130" name="/model.2/model.2.2/Reshape_output_0" type="Reshape" version="opset1">
			<data special_zero="true"/>
			<rt_info>
				<attribute name="fused_names" version="0" value="/model.2/model.2.2/Reshape_output_0"/>
			</rt_info>
			<input>
				<port id="0" precision="FP32">
					<dim>1</dim>
					<dim>64</dim>
					<dim>52</dim>
					<dim>52</dim>
				</port>
				<port id="1" precision="I64">
					<dim>5</dim>
				</port>
			</input>
			<output>
				<port id="2" precision="FP32" names="/model.2/model.2.2/Reshape_output_0">
					<dim>1</dim>
					<dim>2</dim>
					<dim>32</dim>
					<dim>52</dim>
					<dim>52</dim>
				</port>
			</output>
		</layer>
		<layer id="131" name="Constant_1624" type="Const" version="opset1">
			<data element_type="i64" shape="5" offset="19656" size="40"/>
			<rt_info>
				<attribute name="fused_names" version="0" value="Constant_1624"/>
			</rt_info>
			<output>
				<port id="0" precision="I64">
					<dim>5</dim>
				</port>
			</output>
		</layer>
		<layer id="132" name="/model.2/model.2.2/Transpose_output_0" type="Transpose" version="opset1">
			<rt_info>
				<attribute name="fused_names" version="0" value="/model.2/model.2.2/Transpose_output_0"/>
			</rt_info>
			<input>
				<port id="0" precision="FP32">
					<dim>1</dim>
					<dim>2</dim>
					<dim>32</dim>
					<dim>52</dim>
					<dim>52</dim>
				</port>
				<port id="1" precision="I64">
					<dim>5</dim>
				</port>
			</input>
			<output>
				<port id="2" precision="FP32" names="/model.2/model.2.2/Transpose_output_0">
					<dim>1</dim>
					<dim>32</dim>
					<dim>2</dim>
					<dim>52</dim>
					<dim>52</dim>
				</port>
			</output>
		</layer>
		<layer id="133" name="/model.2/model.2.2/Reshape_1_output_0" type="Reshape" version="opset1">
			<data special_zero="true"/>
			<rt_info>
				<attribute name="fused_names" version="0" value="/model.2/model.2.2/Reshape_1_output_0"/>
			</rt_info>
			<input>
				<port id="0" precision="FP32">
					<dim>1</dim>
					<dim>32</dim>
					<dim>2</dim>
					<dim>52</dim>
					<dim>52</dim>
				</port>
				<port id="1" precision="I64">
					<dim>4</dim>
				</port>
			</input>
			<output>
				<port id="2" precision="FP32" names="/model.2/model.2.2/Reshape_1_output_0">
					<dim>1</dim>
					<dim>64</dim>
					<dim>52</dim>
					<dim>52</dim>
				</port>
			</output>
		</layer>
		<layer id="134" name="Reshape_1636" type="Const" version="opset1">
			<data element_type="f32" shape="64, 1, 1, 3, 3" offset="48976" size="2304"/>
			<output>
				<port id="0" precision="FP32">
					<dim>64</dim>
					<dim>1</dim>
					<dim>1</dim>
					<dim>3</dim>
					<dim>3</dim>
				</port>
			</output>
		</layer>
		<layer id="135" name="GroupConvolution_1702" type="GroupConvolution" version="opset1">
			<data strides="2, 2" pads_begin="1, 1" pads_end="1, 1" dilations="1, 1" auto_pad="explicit"/>
			<rt_info>
				<attribute name="fused_names" version="0" value="GroupConvolution_1702, Reshape_1636"/>
			</rt_info>
			<input>
				<port id="0" precision="FP32">
					<dim>1</dim>
					<dim>64</dim>
					<dim>52</dim>
					<dim>52</dim>
				</port>
				<port id="1" precision="FP32">
					<dim>64</dim>
					<dim>1</dim>
					<dim>1</dim>
					<dim>3</dim>
					<dim>3</dim>
				</port>
			</input>
			<output>
				<port id="2" precision="FP32">
					<dim>1</dim>
					<dim>64</dim>
					<dim>26</dim>
					<dim>26</dim>
				</port>
			</output>
		</layer>
		<layer id="136" name="Reshape_1722" type="Const" version="opset1">
			<data element_type="f32" shape="1, 64, 1, 1" offset="51280" size="256"/>
			<output>
				<port id="0" precision="FP32">
					<dim>1</dim>
					<dim>64</dim>
					<dim>1</dim>
					<dim>1</dim>
				</port>
			</output>
		</layer>
		<layer id="137" name="/model.3/branch1/branch1.0/Conv_output_0" type="Add" version="opset1">
			<data auto_broadcast="numpy"/>
			<rt_info>
				<attribute name="fused_names" version="0" value="/model.3/branch1/branch1.0/Conv_output_0, Concat_1721, Reshape_1722"/>
			</rt_info>
			<input>
				<port id="0" precision="FP32">
					<dim>1</dim>
					<dim>64</dim>
					<dim>26</dim>
					<dim>26</dim>
				</port>
				<port id="1" precision="FP32">
					<dim>1</dim>
					<dim>64</dim>
					<dim>1</dim>
					<dim>1</dim>
				</port>
			</input>
			<output>
				<port id="2" precision="FP32" names="/model.3/branch1/branch1.0/Conv_output_0">
					<dim>1</dim>
					<dim>64</dim>
					<dim>26</dim>
					<dim>26</dim>
				</port>
			</output>
		</layer>
		<layer id="138" name="onnx::Conv_1351" type="Const" version="opset1">
			<data element_type="f32" shape="64, 64, 1, 1" offset="51536" size="16384"/>
			<rt_info>
				<attribute name="fused_names" version="0" value="onnx::Conv_1351"/>
			</rt_info>
			<output>
				<port id="0" precision="FP32" names="onnx::Conv_1351">
					<dim>64</dim>
					<dim>64</dim>
					<dim>1</dim>
					<dim>1</dim>
				</port>
			</output>
		</layer>
		<layer id="139" name="Convolution_1750" type="Convolution" version="opset1">
			<data strides="1, 1" dilations="1, 1" pads_begin="0, 0" pads_end="0, 0" auto_pad="explicit"/>
			<rt_info>
				<attribute name="fused_names" version="0" value="Convolution_1750"/>
			</rt_info>
			<input>
				<port id="0" precision="FP32">
					<dim>1</dim>
					<dim>64</dim>
					<dim>26</dim>
					<dim>26</dim>
				</port>
				<port id="1" precision="FP32">
					<dim>64</dim>
					<dim>64</dim>
					<dim>1</dim>
					<dim>1</dim>
				</port>
			</input>
			<output>
				<port id="2" precision="FP32">
					<dim>1</dim>
					<dim>64</dim>
					<dim>26</dim>
					<dim>26</dim>
				</port>
			</output>
		</layer>
		<layer id="140" name="Reshape_1770" type="Const" version="opset1">
			<data element_type="f32" shape="1, 64, 1, 1" offset="67920" size="256"/>
			<output>
				<port id="0" precision="FP32">
					<dim>1</dim>
					<dim>64</dim>
					<dim>1</dim>
					<dim>1</dim>
				</port>
			</output>
		</layer>
		<layer id="141" name="/model.3/branch1/branch1.2/Conv_output_0" type="Add" version="opset1">
			<data auto_broadcast="numpy"/>
			<rt_info>
				<attribute name="fused_names" version="0" value="/model.3/branch1/branch1.2/Conv_output_0, Concat_1769, Reshape_1770"/>
			</rt_info>
			<input>
				<port id="0" precision="FP32">
					<dim>1</dim>
					<dim>64</dim>
					<dim>26</dim>
					<dim>26</dim>
				</port>
				<port id="1" precision="FP32">
					<dim>1</dim>
					<dim>64</dim>
					<dim>1</dim>
					<dim>1</dim>
				</port>
			</input>
			<output>
				<port id="2" precision="FP32" names="/model.3/branch1/branch1.2/Conv_output_0">
					<dim>1</dim>
					<dim>64</dim>
					<dim>26</dim>
					<dim>26</dim>
				</port>
			</output>
		</layer>
		<layer id="142" name="/model.3/branch1/branch1.4/Mul_output_0" type="Swish" version="opset4">
			<rt_info>
				<attribute name="fused_names" version="0" value="/model.3/branch1/branch1.4/Mul_output_0, /model.3/branch1/branch1.4/Sigmoid_output_0"/>
			</rt_info>
			<input>
				<port id="0" precision="FP32">
					<dim>1</dim>
					<dim>64</dim>
					<dim>26</dim>
					<dim>26</dim>
				</port>
			</input>
			<output>
				<port id="1" precision="FP32" names="/model.3/branch1/branch1.4/Mul_output_0">
					<dim>1</dim>
					<dim>64</dim>
					<dim>26</dim>
					<dim>26</dim>
				</port>
			</output>
		</layer>
		<layer id="143" name="onnx::Conv_1354" type="Const" version="opset1">
			<data element_type="f32" shape="64, 64, 1, 1" offset="68176" size="16384"/>
			<rt_info>
				<attribute name="fused_names" version="0" value="onnx::Conv_1354"/>
			</rt_info>
			<output>
				<port id="0" precision="FP32" names="onnx::Conv_1354">
					<dim>64</dim>
					<dim>64</dim>
					<dim>1</dim>
					<dim>1</dim>
				</port>
			</output>
		</layer>
		<layer id="144" name="Convolution_1800" type="Convolution" version="opset1">
			<data strides="1, 1" dilations="1, 1" pads_begin="0, 0" pads_end="0, 0" auto_pad="explicit"/>
			<rt_info>
				<attribute name="fused_names" version="0" value="Convolution_1800"/>
			</rt_info>
			<input>
				<port id="0" precision="FP32">
					<dim>1</dim>
					<dim>64</dim>
					<dim>52</dim>
					<dim>52</dim>
				</port>
				<port id="1" precision="FP32">
					<dim>64</dim>
					<dim>64</dim>
					<dim>1</dim>
					<dim>1</dim>
				</port>
			</input>
			<output>
				<port id="2" precision="FP32">
					<dim>1</dim>
					<dim>64</dim>
					<dim>52</dim>
					<dim>52</dim>
				</port>
			</output>
		</layer>
		<layer id="145" name="Reshape_1820" type="Const" version="opset1">
			<data element_type="f32" shape="1, 64, 1, 1" offset="84560" size="256"/>
			<output>
				<port id="0" precision="FP32">
					<dim>1</dim>
					<dim>64</dim>
					<dim>1</dim>
					<dim>1</dim>
				</port>
			</output>
		</layer>
		<layer id="146" name="/model.3/branch2/branch2.0/Conv_output_0" type="Add" version="opset1">
			<data auto_broadcast="numpy"/>
			<rt_info>
				<attribute name="fused_names" version="0" value="/model.3/branch2/branch2.0/Conv_output_0, Concat_1819, Reshape_1820"/>
			</rt_info>
			<input>
				<port id="0" precision="FP32">
					<dim>1</dim>
					<dim>64</dim>
					<dim>52</dim>
					<dim>52</dim>
				</port>
				<port id="1" precision="FP32">
					<dim>1</dim>
					<dim>64</dim>
					<dim>1</dim>
					<dim>1</dim>
				</port>
			</input>
			<output>
				<port id="2" precision="FP32" names="/model.3/branch2/branch2.0/Conv_output_0">
					<dim>1</dim>
					<dim>64</dim>
					<dim>52</dim>
					<dim>52</dim>
				</port>
			</output>
		</layer>
		<layer id="147" name="/model.3/branch2/branch2.2/Mul_output_0" type="Swish" version="opset4">
			<rt_info>
				<attribute name="fused_names" version="0" value="/model.3/branch2/branch2.2/Mul_output_0, /model.3/branch2/branch2.2/Sigmoid_output_0"/>
			</rt_info>
			<input>
				<port id="0" precision="FP32">
					<dim>1</dim>
					<dim>64</dim>
					<dim>52</dim>
					<dim>52</dim>
				</port>
			</input>
			<output>
				<port id="1" precision="FP32" names="/model.3/branch2/branch2.2/Mul_output_0">
					<dim>1</dim>
					<dim>64</dim>
					<dim>52</dim>
					<dim>52</dim>
				</port>
			</output>
		</layer>
		<layer id="148" name="Reshape_1857" type="Const" version="opset1">
			<data element_type="f32" shape="64, 1, 1, 3, 3" offset="84816" size="2304"/>
			<output>
				<port id="0" precision="FP32">
					<dim>64</dim>
					<dim>1</dim>
					<dim>1</dim>
					<dim>3</dim>
					<dim>3</dim>
				</port>
			</output>
		</layer>
		<layer id="149" name="GroupConvolution_1923" type="GroupConvolution" version="opset1">
			<data strides="2, 2" pads_begin="1, 1" pads_end="1, 1" dilations="1, 1" auto_pad="explicit"/>
			<rt_info>
				<attribute name="fused_names" version="0" value="GroupConvolution_1923, Reshape_1857"/>
			</rt_info>
			<input>
				<port id="0" precision="FP32">
					<dim>1</dim>
					<dim>64</dim>
					<dim>52</dim>
					<dim>52</dim>
				</port>
				<port id="1" precision="FP32">
					<dim>64</dim>
					<dim>1</dim>
					<dim>1</dim>
					<dim>3</dim>
					<dim>3</dim>
				</port>
			</input>
			<output>
				<port id="2" precision="FP32">
					<dim>1</dim>
					<dim>64</dim>
					<dim>26</dim>
					<dim>26</dim>
				</port>
			</output>
		</layer>
		<layer id="150" name="Reshape_1943" type="Const" version="opset1">
			<data element_type="f32" shape="1, 64, 1, 1" offset="87120" size="256"/>
			<output>
				<port id="0" precision="FP32">
					<dim>1</dim>
					<dim>64</dim>
					<dim>1</dim>
					<dim>1</dim>
				</port>
			</output>
		</layer>
		<layer id="151" name="/model.3/branch2/branch2.3/Conv_output_0" type="Add" version="opset1">
			<data auto_broadcast="numpy"/>
			<rt_info>
				<attribute name="fused_names" version="0" value="/model.3/branch2/branch2.3/Conv_output_0, Concat_1942, Reshape_1943"/>
			</rt_info>
			<input>
				<port id="0" precision="FP32">
					<dim>1</dim>
					<dim>64</dim>
					<dim>26</dim>
					<dim>26</dim>
				</port>
				<port id="1" precision="FP32">
					<dim>1</dim>
					<dim>64</dim>
					<dim>1</dim>
					<dim>1</dim>
				</port>
			</input>
			<output>
				<port id="2" precision="FP32" names="/model.3/branch2/branch2.3/Conv_output_0">
					<dim>1</dim>
					<dim>64</dim>
					<dim>26</dim>
					<dim>26</dim>
				</port>
			</output>
		</layer>
		<layer id="152" name="onnx::Conv_1360" type="Const" version="opset1">
			<data element_type="f32" shape="64, 64, 1, 1" offset="87376" size="16384"/>
			<rt_info>
				<attribute name="fused_names" version="0" value="onnx::Conv_1360"/>
			</rt_info>
			<output>
				<port id="0" precision="FP32" names="onnx::Conv_1360">
					<dim>64</dim>
					<dim>64</dim>
					<dim>1</dim>
					<dim>1</dim>
				</port>
			</output>
		</layer>
		<layer id="153" name="Convolution_1971" type="Convolution" version="opset1">
			<data strides="1, 1" dilations="1, 1" pads_begin="0, 0" pads_end="0, 0" auto_pad="explicit"/>
			<rt_info>
				<attribute name="fused_names" version="0" value="Convolution_1971"/>
			</rt_info>
			<input>
				<port id="0" precision="FP32">
					<dim>1</dim>
					<dim>64</dim>
					<dim>26</dim>
					<dim>26</dim>
				</port>
				<port id="1" precision="FP32">
					<dim>64</dim>
					<dim>64</dim>
					<dim>1</dim>
					<dim>1</dim>
				</port>
			</input>
			<output>
				<port id="2" precision="FP32">
					<dim>1</dim>
					<dim>64</dim>
					<dim>26</dim>
					<dim>26</dim>
				</port>
			</output>
		</layer>
		<layer id="154" name="Reshape_1991" type="Const" version="opset1">
			<data element_type="f32" shape="1, 64, 1, 1" offset="103760" size="256"/>
			<output>
				<port id="0" precision="FP32">
					<dim>1</dim>
					<dim>64</dim>
					<dim>1</dim>
					<dim>1</dim>
				</port>
			</output>
		</layer>
		<layer id="155" name="/model.3/branch2/branch2.5/Conv_output_0" type="Add" version="opset1">
			<data auto_broadcast="numpy"/>
			<rt_info>
				<attribute name="fused_names" version="0" value="/model.3/branch2/branch2.5/Conv_output_0, Concat_1990, Reshape_1991"/>
			</rt_info>
			<input>
				<port id="0" precision="FP32">
					<dim>1</dim>
					<dim>64</dim>
					<dim>26</dim>
					<dim>26</dim>
				</port>
				<port id="1" precision="FP32">
					<dim>1</dim>
					<dim>64</dim>
					<dim>1</dim>
					<dim>1</dim>
				</port>
			</input>
			<output>
				<port id="2" precision="FP32" names="/model.3/branch2/branch2.5/Conv_output_0">
					<dim>1</dim>
					<dim>64</dim>
					<dim>26</dim>
					<dim>26</dim>
				</port>
			</output>
		</layer>
		<layer id="156" name="/model.3/branch2/branch2.7/Mul_output_0" type="Swish" version="opset4">
			<rt_info>
				<attribute name="fused_names" version="0" value="/model.3/branch2/branch2.7/Mul_output_0, /model.3/branch2/branch2.7/Sigmoid_output_0"/>
			</rt_info>
			<input>
				<port id="0" precision="FP32">
					<dim>1</dim>
					<dim>64</dim>
					<dim>26</dim>
					<dim>26</dim>
				</port>
			</input>
			<output>
				<port id="1" precision="FP32" names="/model.3/branch2/branch2.7/Mul_output_0">
					<dim>1</dim>
					<dim>64</dim>
					<dim>26</dim>
					<dim>26</dim>
				</port>
			</output>
		</layer>
		<layer id="157" name="/model.3/Concat_output_0" type="Concat" version="opset1">
			<data axis="1"/>
			<rt_info>
				<attribute name="fused_names" version="0" value="/model.3/Concat_output_0"/>
			</rt_info>
			<input>
				<port id="0" precision="FP32">
					<dim>1</dim>
					<dim>64</dim>
					<dim>26</dim>
					<dim>26</dim>
				</port>
				<port id="1" precision="FP32">
					<dim>1</dim>
					<dim>64</dim>
					<dim>26</dim>
					<dim>26</dim>
				</port>
			</input>
			<output>
				<port id="2" precision="FP32" names="/model.3/Concat_output_0">
					<dim>1</dim>
					<dim>128</dim>
					<dim>26</dim>
					<dim>26</dim>
				</port>
			</output>
		</layer>
		<layer id="158" name="/model.3/Constant_output_0" type="Const" version="opset1">
			<data element_type="i64" shape="5" offset="104016" size="40"/>
			<rt_info>
				<attribute name="fused_names" version="0" value="/model.3/Constant_output_0"/>
			</rt_info>
			<output>
				<port id="0" precision="I64" names="/model.3/Constant_output_0">
					<dim>5</dim>
				</port>
			</output>
		</layer>
		<layer id="159" name="/model.3/Reshape_output_0" type="Reshape" version="opset1">
			<data special_zero="true"/>
			<rt_info>
				<attribute name="fused_names" version="0" value="/model.3/Reshape_output_0"/>
			</rt_info>
			<input>
				<port id="0" precision="FP32">
					<dim>1</dim>
					<dim>128</dim>
					<dim>26</dim>
					<dim>26</dim>
				</port>
				<port id="1" precision="I64">
					<dim>5</dim>
				</port>
			</input>
			<output>
				<port id="2" precision="FP32" names="/model.3/Reshape_output_0">
					<dim>1</dim>
					<dim>2</dim>
					<dim>64</dim>
					<dim>26</dim>
					<dim>26</dim>
				</port>
			</output>
		</layer>
		<layer id="160" name="Constant_2028" type="Const" version="opset1">
			<data element_type="i64" shape="5" offset="19656" size="40"/>
			<rt_info>
				<attribute name="fused_names" version="0" value="Constant_2028"/>
			</rt_info>
			<output>
				<port id="0" precision="I64">
					<dim>5</dim>
				</port>
			</output>
		</layer>
		<layer id="161" name="/model.3/Transpose_output_0" type="Transpose" version="opset1">
			<rt_info>
				<attribute name="fused_names" version="0" value="/model.3/Transpose_output_0"/>
			</rt_info>
			<input>
				<port id="0" precision="FP32">
					<dim>1</dim>
					<dim>2</dim>
					<dim>64</dim>
					<dim>26</dim>
					<dim>26</dim>
				</port>
				<port id="1" precision="I64">
					<dim>5</dim>
				</port>
			</input>
			<output>
				<port id="2" precision="FP32" names="/model.3/Transpose_output_0">
					<dim>1</dim>
					<dim>64</dim>
					<dim>2</dim>
					<dim>26</dim>
					<dim>26</dim>
				</port>
			</output>
		</layer>
		<layer id="162" name="/model.3/Constant_1_output_0" type="Const" version="opset1">
			<data element_type="i64" shape="4" offset="104056" size="32"/>
			<rt_info>
				<attribute name="fused_names" version="0" value="/model.3/Constant_1_output_0"/>
			</rt_info>
			<output>
				<port id="0" precision="I64" names="/model.3/Constant_1_output_0">
					<dim>4</dim>
				</port>
			</output>
		</layer>
		<layer id="163" name="/model.3/Reshape_1_output_0" type="Reshape" version="opset1">
			<data special_zero="true"/>
			<rt_info>
				<attribute name="fused_names" version="0" value="/model.3/Reshape_1_output_0"/>
			</rt_info>
			<input>
				<port id="0" precision="FP32">
					<dim>1</dim>
					<dim>64</dim>
					<dim>2</dim>
					<dim>26</dim>
					<dim>26</dim>
				</port>
				<port id="1" precision="I64">
					<dim>4</dim>
				</port>
			</input>
			<output>
				<port id="2" precision="FP32" names="/model.3/Reshape_1_output_0">
					<dim>1</dim>
					<dim>128</dim>
					<dim>26</dim>
					<dim>26</dim>
				</port>
			</output>
		</layer>
		<layer id="164" name="Constant_13200" type="Const" version="opset1">
			<data element_type="i64" shape="2" offset="19728" size="16"/>
			<rt_info>
				<attribute name="fused_names" version="0" value="/model.4/model.4.0/Slice_output_0, Broadcast_2038"/>
			</rt_info>
			<output>
				<port id="0" precision="I64">
					<dim>2</dim>
				</port>
			</output>
		</layer>
		<layer id="165" name="Constant_13203" type="Const" version="opset1">
			<data element_type="i64" shape="2" offset="19776" size="16"/>
			<rt_info>
				<attribute name="fused_names" version="0" value="/model.4/model.4.0/Slice_output_0, Broadcast_2038"/>
			</rt_info>
			<output>
				<port id="0" precision="I64">
					<dim>2</dim>
				</port>
			</output>
		</layer>
		<layer id="166" name="Constant_13206" type="Const" version="opset1">
			<data element_type="i64" shape="2" offset="19760" size="16"/>
			<rt_info>
				<attribute name="fused_names" version="0" value="/model.4/model.4.0/Slice_output_0, Broadcast_2038"/>
			</rt_info>
			<output>
				<port id="0" precision="I64">
					<dim>2</dim>
				</port>
			</output>
		</layer>
		<layer id="167" name="/model.4/model.4.0/Slice_output_0" type="StridedSlice" version="opset1">
			<data begin_mask="1, 0" end_mask="1, 0" new_axis_mask="" shrink_axis_mask="" ellipsis_mask=""/>
			<rt_info>
				<attribute name="fused_names" version="0" value="/model.4/model.4.0/Slice_output_0, Broadcast_2038"/>
			</rt_info>
			<input>
				<port id="0" precision="FP32">
					<dim>1</dim>
					<dim>128</dim>
					<dim>26</dim>
					<dim>26</dim>
				</port>
				<port id="1" precision="I64">
					<dim>2</dim>
				</port>
				<port id="2" precision="I64">
					<dim>2</dim>
				</port>
				<port id="3" precision="I64">
					<dim>2</dim>
				</port>
			</input>
			<output>
				<port id="4" precision="FP32" names="/model.4/model.4.0/Slice_output_0">
					<dim>1</dim>
					<dim>64</dim>
					<dim>26</dim>
					<dim>26</dim>
				</port>
			</output>
		</layer>
		<layer id="168" name="Constant_13212" type="Const" version="opset1">
			<data element_type="i64" shape="2" offset="19776" size="16"/>
			<rt_info>
				<attribute name="fused_names" version="0" value="/model.4/model.4.0/Slice_1_output_0, Broadcast_2057"/>
			</rt_info>
			<output>
				<port id="0" precision="I64">
					<dim>2</dim>
				</port>
			</output>
		</layer>
		<layer id="169" name="Constant_13215" type="Const" version="opset1">
			<data element_type="i64" shape="2" offset="104088" size="16"/>
			<rt_info>
				<attribute name="fused_names" version="0" value="/model.4/model.4.0/Slice_1_output_0, Broadcast_2057"/>
			</rt_info>
			<output>
				<port id="0" precision="I64">
					<dim>2</dim>
				</port>
			</output>
		</layer>
		<layer id="170" name="Constant_13218" type="Const" version="opset1">
			<data element_type="i64" shape="2" offset="19760" size="16"/>
			<rt_info>
				<attribute name="fused_names" version="0" value="/model.4/model.4.0/Slice_1_output_0, Broadcast_2057"/>
			</rt_info>
			<output>
				<port id="0" precision="I64">
					<dim>2</dim>
				</port>
			</output>
		</layer>
		<layer id="171" name="/model.4/model.4.0/Slice_1_output_0" type="StridedSlice" version="opset1">
			<data begin_mask="1, 0" end_mask="1, 0" new_axis_mask="" shrink_axis_mask="" ellipsis_mask=""/>
			<rt_info>
				<attribute name="fused_names" version="0" value="/model.4/model.4.0/Slice_1_output_0, Broadcast_2057"/>
			</rt_info>
			<input>
				<port id="0" precision="FP32">
					<dim>1</dim>
					<dim>128</dim>
					<dim>26</dim>
					<dim>26</dim>
				</port>
				<port id="1" precision="I64">
					<dim>2</dim>
				</port>
				<port id="2" precision="I64">
					<dim>2</dim>
				</port>
				<port id="3" precision="I64">
					<dim>2</dim>
				</port>
			</input>
			<output>
				<port id="4" precision="FP32" names="/model.4/model.4.0/Slice_1_output_0">
					<dim>1</dim>
					<dim>64</dim>
					<dim>26</dim>
					<dim>26</dim>
				</port>
			</output>
		</layer>
		<layer id="172" name="onnx::Conv_1363" type="Const" version="opset1">
			<data element_type="f32" shape="64, 64, 1, 1" offset="104104" size="16384"/>
			<rt_info>
				<attribute name="fused_names" version="0" value="onnx::Conv_1363"/>
			</rt_info>
			<output>
				<port id="0" precision="FP32" names="onnx::Conv_1363">
					<dim>64</dim>
					<dim>64</dim>
					<dim>1</dim>
					<dim>1</dim>
				</port>
			</output>
		</layer>
		<layer id="173" name="Convolution_2074" type="Convolution" version="opset1">
			<data strides="1, 1" dilations="1, 1" pads_begin="0, 0" pads_end="0, 0" auto_pad="explicit"/>
			<rt_info>
				<attribute name="fused_names" version="0" value="Convolution_2074"/>
			</rt_info>
			<input>
				<port id="0" precision="FP32">
					<dim>1</dim>
					<dim>64</dim>
					<dim>26</dim>
					<dim>26</dim>
				</port>
				<port id="1" precision="FP32">
					<dim>64</dim>
					<dim>64</dim>
					<dim>1</dim>
					<dim>1</dim>
				</port>
			</input>
			<output>
				<port id="2" precision="FP32">
					<dim>1</dim>
					<dim>64</dim>
					<dim>26</dim>
					<dim>26</dim>
				</port>
			</output>
		</layer>
		<layer id="174" name="Reshape_2094" type="Const" version="opset1">
			<data element_type="f32" shape="1, 64, 1, 1" offset="120488" size="256"/>
			<output>
				<port id="0" precision="FP32">
					<dim>1</dim>
					<dim>64</dim>
					<dim>1</dim>
					<dim>1</dim>
				</port>
			</output>
		</layer>
		<layer id="175" name="/model.4/model.4.0/branch2/branch2.0/Conv_output_0" type="Add" version="opset1">
			<data auto_broadcast="numpy"/>
			<rt_info>
				<attribute name="fused_names" version="0" value="/model.4/model.4.0/branch2/branch2.0/Conv_output_0, Concat_2093, Reshape_2094"/>
			</rt_info>
			<input>
				<port id="0" precision="FP32">
					<dim>1</dim>
					<dim>64</dim>
					<dim>26</dim>
					<dim>26</dim>
				</port>
				<port id="1" precision="FP32">
					<dim>1</dim>
					<dim>64</dim>
					<dim>1</dim>
					<dim>1</dim>
				</port>
			</input>
			<output>
				<port id="2" precision="FP32" names="/model.4/model.4.0/branch2/branch2.0/Conv_output_0">
					<dim>1</dim>
					<dim>64</dim>
					<dim>26</dim>
					<dim>26</dim>
				</port>
			</output>
		</layer>
		<layer id="176" name="/model.4/model.4.0/branch2/branch2.2/Mul_output_0" type="Swish" version="opset4">
			<rt_info>
				<attribute name="fused_names" version="0" value="/model.4/model.4.0/branch2/branch2.2/Mul_output_0, /model.4/model.4.0/branch2/branch2.2/Sigmoid_output_0"/>
			</rt_info>
			<input>
				<port id="0" precision="FP32">
					<dim>1</dim>
					<dim>64</dim>
					<dim>26</dim>
					<dim>26</dim>
				</port>
			</input>
			<output>
				<port id="1" precision="FP32" names="/model.4/model.4.0/branch2/branch2.2/Mul_output_0">
					<dim>1</dim>
					<dim>64</dim>
					<dim>26</dim>
					<dim>26</dim>
				</port>
			</output>
		</layer>
		<layer id="177" name="Reshape_2131" type="Const" version="opset1">
			<data element_type="f32" shape="64, 1, 1, 3, 3" offset="120744" size="2304"/>
			<output>
				<port id="0" precision="FP32">
					<dim>64</dim>
					<dim>1</dim>
					<dim>1</dim>
					<dim>3</dim>
					<dim>3</dim>
				</port>
			</output>
		</layer>
		<layer id="178" name="GroupConvolution_2197" type="GroupConvolution" version="opset1">
			<data strides="1, 1" pads_begin="1, 1" pads_end="1, 1" dilations="1, 1" auto_pad="explicit"/>
			<rt_info>
				<attribute name="fused_names" version="0" value="GroupConvolution_2197, Reshape_2131"/>
			</rt_info>
			<input>
				<port id="0" precision="FP32">
					<dim>1</dim>
					<dim>64</dim>
					<dim>26</dim>
					<dim>26</dim>
				</port>
				<port id="1" precision="FP32">
					<dim>64</dim>
					<dim>1</dim>
					<dim>1</dim>
					<dim>3</dim>
					<dim>3</dim>
				</port>
			</input>
			<output>
				<port id="2" precision="FP32">
					<dim>1</dim>
					<dim>64</dim>
					<dim>26</dim>
					<dim>26</dim>
				</port>
			</output>
		</layer>
		<layer id="179" name="Reshape_2217" type="Const" version="opset1">
			<data element_type="f32" shape="1, 64, 1, 1" offset="123048" size="256"/>
			<output>
				<port id="0" precision="FP32">
					<dim>1</dim>
					<dim>64</dim>
					<dim>1</dim>
					<dim>1</dim>
				</port>
			</output>
		</layer>
		<layer id="180" name="/model.4/model.4.0/branch2/branch2.3/Conv_output_0" type="Add" version="opset1">
			<data auto_broadcast="numpy"/>
			<rt_info>
				<attribute name="fused_names" version="0" value="/model.4/model.4.0/branch2/branch2.3/Conv_output_0, Concat_2216, Reshape_2217"/>
			</rt_info>
			<input>
				<port id="0" precision="FP32">
					<dim>1</dim>
					<dim>64</dim>
					<dim>26</dim>
					<dim>26</dim>
				</port>
				<port id="1" precision="FP32">
					<dim>1</dim>
					<dim>64</dim>
					<dim>1</dim>
					<dim>1</dim>
				</port>
			</input>
			<output>
				<port id="2" precision="FP32" names="/model.4/model.4.0/branch2/branch2.3/Conv_output_0">
					<dim>1</dim>
					<dim>64</dim>
					<dim>26</dim>
					<dim>26</dim>
				</port>
			</output>
		</layer>
		<layer id="181" name="onnx::Conv_1369" type="Const" version="opset1">
			<data element_type="f32" shape="64, 64, 1, 1" offset="123304" size="16384"/>
			<rt_info>
				<attribute name="fused_names" version="0" value="onnx::Conv_1369"/>
			</rt_info>
			<output>
				<port id="0" precision="FP32" names="onnx::Conv_1369">
					<dim>64</dim>
					<dim>64</dim>
					<dim>1</dim>
					<dim>1</dim>
				</port>
			</output>
		</layer>
		<layer id="182" name="Convolution_2245" type="Convolution" version="opset1">
			<data strides="1, 1" dilations="1, 1" pads_begin="0, 0" pads_end="0, 0" auto_pad="explicit"/>
			<rt_info>
				<attribute name="fused_names" version="0" value="Convolution_2245"/>
			</rt_info>
			<input>
				<port id="0" precision="FP32">
					<dim>1</dim>
					<dim>64</dim>
					<dim>26</dim>
					<dim>26</dim>
				</port>
				<port id="1" precision="FP32">
					<dim>64</dim>
					<dim>64</dim>
					<dim>1</dim>
					<dim>1</dim>
				</port>
			</input>
			<output>
				<port id="2" precision="FP32">
					<dim>1</dim>
					<dim>64</dim>
					<dim>26</dim>
					<dim>26</dim>
				</port>
			</output>
		</layer>
		<layer id="183" name="Reshape_2265" type="Const" version="opset1">
			<data element_type="f32" shape="1, 64, 1, 1" offset="139688" size="256"/>
			<output>
				<port id="0" precision="FP32">
					<dim>1</dim>
					<dim>64</dim>
					<dim>1</dim>
					<dim>1</dim>
				</port>
			</output>
		</layer>
		<layer id="184" name="/model.4/model.4.0/branch2/branch2.5/Conv_output_0" type="Add" version="opset1">
			<data auto_broadcast="numpy"/>
			<rt_info>
				<attribute name="fused_names" version="0" value="/model.4/model.4.0/branch2/branch2.5/Conv_output_0, Concat_2264, Reshape_2265"/>
			</rt_info>
			<input>
				<port id="0" precision="FP32">
					<dim>1</dim>
					<dim>64</dim>
					<dim>26</dim>
					<dim>26</dim>
				</port>
				<port id="1" precision="FP32">
					<dim>1</dim>
					<dim>64</dim>
					<dim>1</dim>
					<dim>1</dim>
				</port>
			</input>
			<output>
				<port id="2" precision="FP32" names="/model.4/model.4.0/branch2/branch2.5/Conv_output_0">
					<dim>1</dim>
					<dim>64</dim>
					<dim>26</dim>
					<dim>26</dim>
				</port>
			</output>
		</layer>
		<layer id="185" name="/model.4/model.4.0/branch2/branch2.7/Mul_output_0" type="Swish" version="opset4">
			<rt_info>
				<attribute name="fused_names" version="0" value="/model.4/model.4.0/branch2/branch2.7/Mul_output_0, /model.4/model.4.0/branch2/branch2.7/Sigmoid_output_0"/>
			</rt_info>
			<input>
				<port id="0" precision="FP32">
					<dim>1</dim>
					<dim>64</dim>
					<dim>26</dim>
					<dim>26</dim>
				</port>
			</input>
			<output>
				<port id="1" precision="FP32" names="/model.4/model.4.0/branch2/branch2.7/Mul_output_0">
					<dim>1</dim>
					<dim>64</dim>
					<dim>26</dim>
					<dim>26</dim>
				</port>
			</output>
		</layer>
		<layer id="186" name="/model.4/model.4.0/Concat_output_0" type="Concat" version="opset1">
			<data axis="1"/>
			<rt_info>
				<attribute name="fused_names" version="0" value="/model.4/model.4.0/Concat_output_0"/>
			</rt_info>
			<input>
				<port id="0" precision="FP32">
					<dim>1</dim>
					<dim>64</dim>
					<dim>26</dim>
					<dim>26</dim>
				</port>
				<port id="1" precision="FP32">
					<dim>1</dim>
					<dim>64</dim>
					<dim>26</dim>
					<dim>26</dim>
				</port>
			</input>
			<output>
				<port id="2" precision="FP32" names="/model.4/model.4.0/Concat_output_0">
					<dim>1</dim>
					<dim>128</dim>
					<dim>26</dim>
					<dim>26</dim>
				</port>
			</output>
		</layer>
		<layer id="187" name="/model.4/model.4.0/Reshape_output_0" type="Reshape" version="opset1">
			<data special_zero="true"/>
			<rt_info>
				<attribute name="fused_names" version="0" value="/model.4/model.4.0/Reshape_output_0"/>
			</rt_info>
			<input>
				<port id="0" precision="FP32">
					<dim>1</dim>
					<dim>128</dim>
					<dim>26</dim>
					<dim>26</dim>
				</port>
				<port id="1" precision="I64">
					<dim>5</dim>
				</port>
			</input>
			<output>
				<port id="2" precision="FP32" names="/model.4/model.4.0/Reshape_output_0">
					<dim>1</dim>
					<dim>2</dim>
					<dim>64</dim>
					<dim>26</dim>
					<dim>26</dim>
				</port>
			</output>
		</layer>
		<layer id="188" name="Constant_2299" type="Const" version="opset1">
			<data element_type="i64" shape="5" offset="19656" size="40"/>
			<rt_info>
				<attribute name="fused_names" version="0" value="Constant_2299"/>
			</rt_info>
			<output>
				<port id="0" precision="I64">
					<dim>5</dim>
				</port>
			</output>
		</layer>
		<layer id="189" name="/model.4/model.4.0/Transpose_output_0" type="Transpose" version="opset1">
			<rt_info>
				<attribute name="fused_names" version="0" value="/model.4/model.4.0/Transpose_output_0"/>
			</rt_info>
			<input>
				<port id="0" precision="FP32">
					<dim>1</dim>
					<dim>2</dim>
					<dim>64</dim>
					<dim>26</dim>
					<dim>26</dim>
				</port>
				<port id="1" precision="I64">
					<dim>5</dim>
				</port>
			</input>
			<output>
				<port id="2" precision="FP32" names="/model.4/model.4.0/Transpose_output_0">
					<dim>1</dim>
					<dim>64</dim>
					<dim>2</dim>
					<dim>26</dim>
					<dim>26</dim>
				</port>
			</output>
		</layer>
		<layer id="190" name="/model.4/model.4.0/Reshape_1_output_0" type="Reshape" version="opset1">
			<data special_zero="true"/>
			<rt_info>
				<attribute name="fused_names" version="0" value="/model.4/model.4.0/Reshape_1_output_0"/>
			</rt_info>
			<input>
				<port id="0" precision="FP32">
					<dim>1</dim>
					<dim>64</dim>
					<dim>2</dim>
					<dim>26</dim>
					<dim>26</dim>
				</port>
				<port id="1" precision="I64">
					<dim>4</dim>
				</port>
			</input>
			<output>
				<port id="2" precision="FP32" names="/model.4/model.4.0/Reshape_1_output_0">
					<dim>1</dim>
					<dim>128</dim>
					<dim>26</dim>
					<dim>26</dim>
				</port>
			</output>
		</layer>
		<layer id="191" name="Constant_13224" type="Const" version="opset1">
			<data element_type="i64" shape="2" offset="19728" size="16"/>
			<rt_info>
				<attribute name="fused_names" version="0" value="/model.4/model.4.1/Slice_output_0, Broadcast_2306"/>
			</rt_info>
			<output>
				<port id="0" precision="I64">
					<dim>2</dim>
				</port>
			</output>
		</layer>
		<layer id="192" name="Constant_13227" type="Const" version="opset1">
			<data element_type="i64" shape="2" offset="19776" size="16"/>
			<rt_info>
				<attribute name="fused_names" version="0" value="/model.4/model.4.1/Slice_output_0, Broadcast_2306"/>
			</rt_info>
			<output>
				<port id="0" precision="I64">
					<dim>2</dim>
				</port>
			</output>
		</layer>
		<layer id="193" name="Constant_13230" type="Const" version="opset1">
			<data element_type="i64" shape="2" offset="19760" size="16"/>
			<rt_info>
				<attribute name="fused_names" version="0" value="/model.4/model.4.1/Slice_output_0, Broadcast_2306"/>
			</rt_info>
			<output>
				<port id="0" precision="I64">
					<dim>2</dim>
				</port>
			</output>
		</layer>
		<layer id="194" name="/model.4/model.4.1/Slice_output_0" type="StridedSlice" version="opset1">
			<data begin_mask="1, 0" end_mask="1, 0" new_axis_mask="" shrink_axis_mask="" ellipsis_mask=""/>
			<rt_info>
				<attribute name="fused_names" version="0" value="/model.4/model.4.1/Slice_output_0, Broadcast_2306"/>
			</rt_info>
			<input>
				<port id="0" precision="FP32">
					<dim>1</dim>
					<dim>128</dim>
					<dim>26</dim>
					<dim>26</dim>
				</port>
				<port id="1" precision="I64">
					<dim>2</dim>
				</port>
				<port id="2" precision="I64">
					<dim>2</dim>
				</port>
				<port id="3" precision="I64">
					<dim>2</dim>
				</port>
			</input>
			<output>
				<port id="4" precision="FP32" names="/model.4/model.4.1/Slice_output_0">
					<dim>1</dim>
					<dim>64</dim>
					<dim>26</dim>
					<dim>26</dim>
				</port>
			</output>
		</layer>
		<layer id="195" name="Constant_13236" type="Const" version="opset1">
			<data element_type="i64" shape="2" offset="19776" size="16"/>
			<rt_info>
				<attribute name="fused_names" version="0" value="/model.4/model.4.1/Slice_1_output_0, Broadcast_2325"/>
			</rt_info>
			<output>
				<port id="0" precision="I64">
					<dim>2</dim>
				</port>
			</output>
		</layer>
		<layer id="196" name="Constant_13239" type="Const" version="opset1">
			<data element_type="i64" shape="2" offset="104088" size="16"/>
			<rt_info>
				<attribute name="fused_names" version="0" value="/model.4/model.4.1/Slice_1_output_0, Broadcast_2325"/>
			</rt_info>
			<output>
				<port id="0" precision="I64">
					<dim>2</dim>
				</port>
			</output>
		</layer>
		<layer id="197" name="Constant_13242" type="Const" version="opset1">
			<data element_type="i64" shape="2" offset="19760" size="16"/>
			<rt_info>
				<attribute name="fused_names" version="0" value="/model.4/model.4.1/Slice_1_output_0, Broadcast_2325"/>
			</rt_info>
			<output>
				<port id="0" precision="I64">
					<dim>2</dim>
				</port>
			</output>
		</layer>
		<layer id="198" name="/model.4/model.4.1/Slice_1_output_0" type="StridedSlice" version="opset1">
			<data begin_mask="1, 0" end_mask="1, 0" new_axis_mask="" shrink_axis_mask="" ellipsis_mask=""/>
			<rt_info>
				<attribute name="fused_names" version="0" value="/model.4/model.4.1/Slice_1_output_0, Broadcast_2325"/>
			</rt_info>
			<input>
				<port id="0" precision="FP32">
					<dim>1</dim>
					<dim>128</dim>
					<dim>26</dim>
					<dim>26</dim>
				</port>
				<port id="1" precision="I64">
					<dim>2</dim>
				</port>
				<port id="2" precision="I64">
					<dim>2</dim>
				</port>
				<port id="3" precision="I64">
					<dim>2</dim>
				</port>
			</input>
			<output>
				<port id="4" precision="FP32" names="/model.4/model.4.1/Slice_1_output_0">
					<dim>1</dim>
					<dim>64</dim>
					<dim>26</dim>
					<dim>26</dim>
				</port>
			</output>
		</layer>
		<layer id="199" name="onnx::Conv_1372" type="Const" version="opset1">
			<data element_type="f32" shape="64, 64, 1, 1" offset="139944" size="16384"/>
			<rt_info>
				<attribute name="fused_names" version="0" value="onnx::Conv_1372"/>
			</rt_info>
			<output>
				<port id="0" precision="FP32" names="onnx::Conv_1372">
					<dim>64</dim>
					<dim>64</dim>
					<dim>1</dim>
					<dim>1</dim>
				</port>
			</output>
		</layer>
		<layer id="200" name="Convolution_2342" type="Convolution" version="opset1">
			<data strides="1, 1" dilations="1, 1" pads_begin="0, 0" pads_end="0, 0" auto_pad="explicit"/>
			<rt_info>
				<attribute name="fused_names" version="0" value="Convolution_2342"/>
			</rt_info>
			<input>
				<port id="0" precision="FP32">
					<dim>1</dim>
					<dim>64</dim>
					<dim>26</dim>
					<dim>26</dim>
				</port>
				<port id="1" precision="FP32">
					<dim>64</dim>
					<dim>64</dim>
					<dim>1</dim>
					<dim>1</dim>
				</port>
			</input>
			<output>
				<port id="2" precision="FP32">
					<dim>1</dim>
					<dim>64</dim>
					<dim>26</dim>
					<dim>26</dim>
				</port>
			</output>
		</layer>
		<layer id="201" name="Reshape_2362" type="Const" version="opset1">
			<data element_type="f32" shape="1, 64, 1, 1" offset="156328" size="256"/>
			<output>
				<port id="0" precision="FP32">
					<dim>1</dim>
					<dim>64</dim>
					<dim>1</dim>
					<dim>1</dim>
				</port>
			</output>
		</layer>
		<layer id="202" name="/model.4/model.4.1/branch2/branch2.0/Conv_output_0" type="Add" version="opset1">
			<data auto_broadcast="numpy"/>
			<rt_info>
				<attribute name="fused_names" version="0" value="/model.4/model.4.1/branch2/branch2.0/Conv_output_0, Concat_2361, Reshape_2362"/>
			</rt_info>
			<input>
				<port id="0" precision="FP32">
					<dim>1</dim>
					<dim>64</dim>
					<dim>26</dim>
					<dim>26</dim>
				</port>
				<port id="1" precision="FP32">
					<dim>1</dim>
					<dim>64</dim>
					<dim>1</dim>
					<dim>1</dim>
				</port>
			</input>
			<output>
				<port id="2" precision="FP32" names="/model.4/model.4.1/branch2/branch2.0/Conv_output_0">
					<dim>1</dim>
					<dim>64</dim>
					<dim>26</dim>
					<dim>26</dim>
				</port>
			</output>
		</layer>
		<layer id="203" name="/model.4/model.4.1/branch2/branch2.2/Mul_output_0" type="Swish" version="opset4">
			<rt_info>
				<attribute name="fused_names" version="0" value="/model.4/model.4.1/branch2/branch2.2/Mul_output_0, /model.4/model.4.1/branch2/branch2.2/Sigmoid_output_0"/>
			</rt_info>
			<input>
				<port id="0" precision="FP32">
					<dim>1</dim>
					<dim>64</dim>
					<dim>26</dim>
					<dim>26</dim>
				</port>
			</input>
			<output>
				<port id="1" precision="FP32" names="/model.4/model.4.1/branch2/branch2.2/Mul_output_0">
					<dim>1</dim>
					<dim>64</dim>
					<dim>26</dim>
					<dim>26</dim>
				</port>
			</output>
		</layer>
		<layer id="204" name="Reshape_2399" type="Const" version="opset1">
			<data element_type="f32" shape="64, 1, 1, 3, 3" offset="156584" size="2304"/>
			<output>
				<port id="0" precision="FP32">
					<dim>64</dim>
					<dim>1</dim>
					<dim>1</dim>
					<dim>3</dim>
					<dim>3</dim>
				</port>
			</output>
		</layer>
		<layer id="205" name="GroupConvolution_2465" type="GroupConvolution" version="opset1">
			<data strides="1, 1" pads_begin="1, 1" pads_end="1, 1" dilations="1, 1" auto_pad="explicit"/>
			<rt_info>
				<attribute name="fused_names" version="0" value="GroupConvolution_2465, Reshape_2399"/>
			</rt_info>
			<input>
				<port id="0" precision="FP32">
					<dim>1</dim>
					<dim>64</dim>
					<dim>26</dim>
					<dim>26</dim>
				</port>
				<port id="1" precision="FP32">
					<dim>64</dim>
					<dim>1</dim>
					<dim>1</dim>
					<dim>3</dim>
					<dim>3</dim>
				</port>
			</input>
			<output>
				<port id="2" precision="FP32">
					<dim>1</dim>
					<dim>64</dim>
					<dim>26</dim>
					<dim>26</dim>
				</port>
			</output>
		</layer>
		<layer id="206" name="Reshape_2485" type="Const" version="opset1">
			<data element_type="f32" shape="1, 64, 1, 1" offset="158888" size="256"/>
			<output>
				<port id="0" precision="FP32">
					<dim>1</dim>
					<dim>64</dim>
					<dim>1</dim>
					<dim>1</dim>
				</port>
			</output>
		</layer>
		<layer id="207" name="/model.4/model.4.1/branch2/branch2.3/Conv_output_0" type="Add" version="opset1">
			<data auto_broadcast="numpy"/>
			<rt_info>
				<attribute name="fused_names" version="0" value="/model.4/model.4.1/branch2/branch2.3/Conv_output_0, Concat_2484, Reshape_2485"/>
			</rt_info>
			<input>
				<port id="0" precision="FP32">
					<dim>1</dim>
					<dim>64</dim>
					<dim>26</dim>
					<dim>26</dim>
				</port>
				<port id="1" precision="FP32">
					<dim>1</dim>
					<dim>64</dim>
					<dim>1</dim>
					<dim>1</dim>
				</port>
			</input>
			<output>
				<port id="2" precision="FP32" names="/model.4/model.4.1/branch2/branch2.3/Conv_output_0">
					<dim>1</dim>
					<dim>64</dim>
					<dim>26</dim>
					<dim>26</dim>
				</port>
			</output>
		</layer>
		<layer id="208" name="onnx::Conv_1378" type="Const" version="opset1">
			<data element_type="f32" shape="64, 64, 1, 1" offset="159144" size="16384"/>
			<rt_info>
				<attribute name="fused_names" version="0" value="onnx::Conv_1378"/>
			</rt_info>
			<output>
				<port id="0" precision="FP32" names="onnx::Conv_1378">
					<dim>64</dim>
					<dim>64</dim>
					<dim>1</dim>
					<dim>1</dim>
				</port>
			</output>
		</layer>
		<layer id="209" name="Convolution_2513" type="Convolution" version="opset1">
			<data strides="1, 1" dilations="1, 1" pads_begin="0, 0" pads_end="0, 0" auto_pad="explicit"/>
			<rt_info>
				<attribute name="fused_names" version="0" value="Convolution_2513"/>
			</rt_info>
			<input>
				<port id="0" precision="FP32">
					<dim>1</dim>
					<dim>64</dim>
					<dim>26</dim>
					<dim>26</dim>
				</port>
				<port id="1" precision="FP32">
					<dim>64</dim>
					<dim>64</dim>
					<dim>1</dim>
					<dim>1</dim>
				</port>
			</input>
			<output>
				<port id="2" precision="FP32">
					<dim>1</dim>
					<dim>64</dim>
					<dim>26</dim>
					<dim>26</dim>
				</port>
			</output>
		</layer>
		<layer id="210" name="Reshape_2533" type="Const" version="opset1">
			<data element_type="f32" shape="1, 64, 1, 1" offset="175528" size="256"/>
			<output>
				<port id="0" precision="FP32">
					<dim>1</dim>
					<dim>64</dim>
					<dim>1</dim>
					<dim>1</dim>
				</port>
			</output>
		</layer>
		<layer id="211" name="/model.4/model.4.1/branch2/branch2.5/Conv_output_0" type="Add" version="opset1">
			<data auto_broadcast="numpy"/>
			<rt_info>
				<attribute name="fused_names" version="0" value="/model.4/model.4.1/branch2/branch2.5/Conv_output_0, Concat_2532, Reshape_2533"/>
			</rt_info>
			<input>
				<port id="0" precision="FP32">
					<dim>1</dim>
					<dim>64</dim>
					<dim>26</dim>
					<dim>26</dim>
				</port>
				<port id="1" precision="FP32">
					<dim>1</dim>
					<dim>64</dim>
					<dim>1</dim>
					<dim>1</dim>
				</port>
			</input>
			<output>
				<port id="2" precision="FP32" names="/model.4/model.4.1/branch2/branch2.5/Conv_output_0">
					<dim>1</dim>
					<dim>64</dim>
					<dim>26</dim>
					<dim>26</dim>
				</port>
			</output>
		</layer>
		<layer id="212" name="/model.4/model.4.1/branch2/branch2.7/Mul_output_0" type="Swish" version="opset4">
			<rt_info>
				<attribute name="fused_names" version="0" value="/model.4/model.4.1/branch2/branch2.7/Mul_output_0, /model.4/model.4.1/branch2/branch2.7/Sigmoid_output_0"/>
			</rt_info>
			<input>
				<port id="0" precision="FP32">
					<dim>1</dim>
					<dim>64</dim>
					<dim>26</dim>
					<dim>26</dim>
				</port>
			</input>
			<output>
				<port id="1" precision="FP32" names="/model.4/model.4.1/branch2/branch2.7/Mul_output_0">
					<dim>1</dim>
					<dim>64</dim>
					<dim>26</dim>
					<dim>26</dim>
				</port>
			</output>
		</layer>
		<layer id="213" name="/model.4/model.4.1/Concat_output_0" type="Concat" version="opset1">
			<data axis="1"/>
			<rt_info>
				<attribute name="fused_names" version="0" value="/model.4/model.4.1/Concat_output_0"/>
			</rt_info>
			<input>
				<port id="0" precision="FP32">
					<dim>1</dim>
					<dim>64</dim>
					<dim>26</dim>
					<dim>26</dim>
				</port>
				<port id="1" precision="FP32">
					<dim>1</dim>
					<dim>64</dim>
					<dim>26</dim>
					<dim>26</dim>
				</port>
			</input>
			<output>
				<port id="2" precision="FP32" names="/model.4/model.4.1/Concat_output_0">
					<dim>1</dim>
					<dim>128</dim>
					<dim>26</dim>
					<dim>26</dim>
				</port>
			</output>
		</layer>
		<layer id="214" name="/model.4/model.4.1/Reshape_output_0" type="Reshape" version="opset1">
			<data special_zero="true"/>
			<rt_info>
				<attribute name="fused_names" version="0" value="/model.4/model.4.1/Reshape_output_0"/>
			</rt_info>
			<input>
				<port id="0" precision="FP32">
					<dim>1</dim>
					<dim>128</dim>
					<dim>26</dim>
					<dim>26</dim>
				</port>
				<port id="1" precision="I64">
					<dim>5</dim>
				</port>
			</input>
			<output>
				<port id="2" precision="FP32" names="/model.4/model.4.1/Reshape_output_0">
					<dim>1</dim>
					<dim>2</dim>
					<dim>64</dim>
					<dim>26</dim>
					<dim>26</dim>
				</port>
			</output>
		</layer>
		<layer id="215" name="Constant_2567" type="Const" version="opset1">
			<data element_type="i64" shape="5" offset="19656" size="40"/>
			<rt_info>
				<attribute name="fused_names" version="0" value="Constant_2567"/>
			</rt_info>
			<output>
				<port id="0" precision="I64">
					<dim>5</dim>
				</port>
			</output>
		</layer>
		<layer id="216" name="/model.4/model.4.1/Transpose_output_0" type="Transpose" version="opset1">
			<rt_info>
				<attribute name="fused_names" version="0" value="/model.4/model.4.1/Transpose_output_0"/>
			</rt_info>
			<input>
				<port id="0" precision="FP32">
					<dim>1</dim>
					<dim>2</dim>
					<dim>64</dim>
					<dim>26</dim>
					<dim>26</dim>
				</port>
				<port id="1" precision="I64">
					<dim>5</dim>
				</port>
			</input>
			<output>
				<port id="2" precision="FP32" names="/model.4/model.4.1/Transpose_output_0">
					<dim>1</dim>
					<dim>64</dim>
					<dim>2</dim>
					<dim>26</dim>
					<dim>26</dim>
				</port>
			</output>
		</layer>
		<layer id="217" name="/model.4/model.4.1/Reshape_1_output_0" type="Reshape" version="opset1">
			<data special_zero="true"/>
			<rt_info>
				<attribute name="fused_names" version="0" value="/model.4/model.4.1/Reshape_1_output_0"/>
			</rt_info>
			<input>
				<port id="0" precision="FP32">
					<dim>1</dim>
					<dim>64</dim>
					<dim>2</dim>
					<dim>26</dim>
					<dim>26</dim>
				</port>
				<port id="1" precision="I64">
					<dim>4</dim>
				</port>
			</input>
			<output>
				<port id="2" precision="FP32" names="/model.4/model.4.1/Reshape_1_output_0">
					<dim>1</dim>
					<dim>128</dim>
					<dim>26</dim>
					<dim>26</dim>
				</port>
			</output>
		</layer>
		<layer id="218" name="Constant_13248" type="Const" version="opset1">
			<data element_type="i64" shape="2" offset="19728" size="16"/>
			<rt_info>
				<attribute name="fused_names" version="0" value="/model.4/model.4.2/Slice_output_0, Broadcast_2574"/>
			</rt_info>
			<output>
				<port id="0" precision="I64">
					<dim>2</dim>
				</port>
			</output>
		</layer>
		<layer id="219" name="Constant_13251" type="Const" version="opset1">
			<data element_type="i64" shape="2" offset="19776" size="16"/>
			<rt_info>
				<attribute name="fused_names" version="0" value="/model.4/model.4.2/Slice_output_0, Broadcast_2574"/>
			</rt_info>
			<output>
				<port id="0" precision="I64">
					<dim>2</dim>
				</port>
			</output>
		</layer>
		<layer id="220" name="Constant_13254" type="Const" version="opset1">
			<data element_type="i64" shape="2" offset="19760" size="16"/>
			<rt_info>
				<attribute name="fused_names" version="0" value="/model.4/model.4.2/Slice_output_0, Broadcast_2574"/>
			</rt_info>
			<output>
				<port id="0" precision="I64">
					<dim>2</dim>
				</port>
			</output>
		</layer>
		<layer id="221" name="/model.4/model.4.2/Slice_output_0" type="StridedSlice" version="opset1">
			<data begin_mask="1, 0" end_mask="1, 0" new_axis_mask="" shrink_axis_mask="" ellipsis_mask=""/>
			<rt_info>
				<attribute name="fused_names" version="0" value="/model.4/model.4.2/Slice_output_0, Broadcast_2574"/>
			</rt_info>
			<input>
				<port id="0" precision="FP32">
					<dim>1</dim>
					<dim>128</dim>
					<dim>26</dim>
					<dim>26</dim>
				</port>
				<port id="1" precision="I64">
					<dim>2</dim>
				</port>
				<port id="2" precision="I64">
					<dim>2</dim>
				</port>
				<port id="3" precision="I64">
					<dim>2</dim>
				</port>
			</input>
			<output>
				<port id="4" precision="FP32" names="/model.4/model.4.2/Slice_output_0">
					<dim>1</dim>
					<dim>64</dim>
					<dim>26</dim>
					<dim>26</dim>
				</port>
			</output>
		</layer>
		<layer id="222" name="Constant_13260" type="Const" version="opset1">
			<data element_type="i64" shape="2" offset="19776" size="16"/>
			<rt_info>
				<attribute name="fused_names" version="0" value="/model.4/model.4.2/Slice_1_output_0, Broadcast_2593"/>
			</rt_info>
			<output>
				<port id="0" precision="I64">
					<dim>2</dim>
				</port>
			</output>
		</layer>
		<layer id="223" name="Constant_13263" type="Const" version="opset1">
			<data element_type="i64" shape="2" offset="104088" size="16"/>
			<rt_info>
				<attribute name="fused_names" version="0" value="/model.4/model.4.2/Slice_1_output_0, Broadcast_2593"/>
			</rt_info>
			<output>
				<port id="0" precision="I64">
					<dim>2</dim>
				</port>
			</output>
		</layer>
		<layer id="224" name="Constant_13266" type="Const" version="opset1">
			<data element_type="i64" shape="2" offset="19760" size="16"/>
			<rt_info>
				<attribute name="fused_names" version="0" value="/model.4/model.4.2/Slice_1_output_0, Broadcast_2593"/>
			</rt_info>
			<output>
				<port id="0" precision="I64">
					<dim>2</dim>
				</port>
			</output>
		</layer>
		<layer id="225" name="/model.4/model.4.2/Slice_1_output_0" type="StridedSlice" version="opset1">
			<data begin_mask="1, 0" end_mask="1, 0" new_axis_mask="" shrink_axis_mask="" ellipsis_mask=""/>
			<rt_info>
				<attribute name="fused_names" version="0" value="/model.4/model.4.2/Slice_1_output_0, Broadcast_2593"/>
			</rt_info>
			<input>
				<port id="0" precision="FP32">
					<dim>1</dim>
					<dim>128</dim>
					<dim>26</dim>
					<dim>26</dim>
				</port>
				<port id="1" precision="I64">
					<dim>2</dim>
				</port>
				<port id="2" precision="I64">
					<dim>2</dim>
				</port>
				<port id="3" precision="I64">
					<dim>2</dim>
				</port>
			</input>
			<output>
				<port id="4" precision="FP32" names="/model.4/model.4.2/Slice_1_output_0">
					<dim>1</dim>
					<dim>64</dim>
					<dim>26</dim>
					<dim>26</dim>
				</port>
			</output>
		</layer>
		<layer id="226" name="onnx::Conv_1381" type="Const" version="opset1">
			<data element_type="f32" shape="64, 64, 1, 1" offset="175784" size="16384"/>
			<rt_info>
				<attribute name="fused_names" version="0" value="onnx::Conv_1381"/>
			</rt_info>
			<output>
				<port id="0" precision="FP32" names="onnx::Conv_1381">
					<dim>64</dim>
					<dim>64</dim>
					<dim>1</dim>
					<dim>1</dim>
				</port>
			</output>
		</layer>
		<layer id="227" name="Convolution_2610" type="Convolution" version="opset1">
			<data strides="1, 1" dilations="1, 1" pads_begin="0, 0" pads_end="0, 0" auto_pad="explicit"/>
			<rt_info>
				<attribute name="fused_names" version="0" value="Convolution_2610"/>
			</rt_info>
			<input>
				<port id="0" precision="FP32">
					<dim>1</dim>
					<dim>64</dim>
					<dim>26</dim>
					<dim>26</dim>
				</port>
				<port id="1" precision="FP32">
					<dim>64</dim>
					<dim>64</dim>
					<dim>1</dim>
					<dim>1</dim>
				</port>
			</input>
			<output>
				<port id="2" precision="FP32">
					<dim>1</dim>
					<dim>64</dim>
					<dim>26</dim>
					<dim>26</dim>
				</port>
			</output>
		</layer>
		<layer id="228" name="Reshape_2630" type="Const" version="opset1">
			<data element_type="f32" shape="1, 64, 1, 1" offset="192168" size="256"/>
			<output>
				<port id="0" precision="FP32">
					<dim>1</dim>
					<dim>64</dim>
					<dim>1</dim>
					<dim>1</dim>
				</port>
			</output>
		</layer>
		<layer id="229" name="/model.4/model.4.2/branch2/branch2.0/Conv_output_0" type="Add" version="opset1">
			<data auto_broadcast="numpy"/>
			<rt_info>
				<attribute name="fused_names" version="0" value="/model.4/model.4.2/branch2/branch2.0/Conv_output_0, Concat_2629, Reshape_2630"/>
			</rt_info>
			<input>
				<port id="0" precision="FP32">
					<dim>1</dim>
					<dim>64</dim>
					<dim>26</dim>
					<dim>26</dim>
				</port>
				<port id="1" precision="FP32">
					<dim>1</dim>
					<dim>64</dim>
					<dim>1</dim>
					<dim>1</dim>
				</port>
			</input>
			<output>
				<port id="2" precision="FP32" names="/model.4/model.4.2/branch2/branch2.0/Conv_output_0">
					<dim>1</dim>
					<dim>64</dim>
					<dim>26</dim>
					<dim>26</dim>
				</port>
			</output>
		</layer>
		<layer id="230" name="/model.4/model.4.2/branch2/branch2.2/Mul_output_0" type="Swish" version="opset4">
			<rt_info>
				<attribute name="fused_names" version="0" value="/model.4/model.4.2/branch2/branch2.2/Mul_output_0, /model.4/model.4.2/branch2/branch2.2/Sigmoid_output_0"/>
			</rt_info>
			<input>
				<port id="0" precision="FP32">
					<dim>1</dim>
					<dim>64</dim>
					<dim>26</dim>
					<dim>26</dim>
				</port>
			</input>
			<output>
				<port id="1" precision="FP32" names="/model.4/model.4.2/branch2/branch2.2/Mul_output_0">
					<dim>1</dim>
					<dim>64</dim>
					<dim>26</dim>
					<dim>26</dim>
				</port>
			</output>
		</layer>
		<layer id="231" name="Reshape_2667" type="Const" version="opset1">
			<data element_type="f32" shape="64, 1, 1, 3, 3" offset="192424" size="2304"/>
			<output>
				<port id="0" precision="FP32">
					<dim>64</dim>
					<dim>1</dim>
					<dim>1</dim>
					<dim>3</dim>
					<dim>3</dim>
				</port>
			</output>
		</layer>
		<layer id="232" name="GroupConvolution_2733" type="GroupConvolution" version="opset1">
			<data strides="1, 1" pads_begin="1, 1" pads_end="1, 1" dilations="1, 1" auto_pad="explicit"/>
			<rt_info>
				<attribute name="fused_names" version="0" value="GroupConvolution_2733, Reshape_2667"/>
			</rt_info>
			<input>
				<port id="0" precision="FP32">
					<dim>1</dim>
					<dim>64</dim>
					<dim>26</dim>
					<dim>26</dim>
				</port>
				<port id="1" precision="FP32">
					<dim>64</dim>
					<dim>1</dim>
					<dim>1</dim>
					<dim>3</dim>
					<dim>3</dim>
				</port>
			</input>
			<output>
				<port id="2" precision="FP32">
					<dim>1</dim>
					<dim>64</dim>
					<dim>26</dim>
					<dim>26</dim>
				</port>
			</output>
		</layer>
		<layer id="233" name="Reshape_2753" type="Const" version="opset1">
			<data element_type="f32" shape="1, 64, 1, 1" offset="194728" size="256"/>
			<output>
				<port id="0" precision="FP32">
					<dim>1</dim>
					<dim>64</dim>
					<dim>1</dim>
					<dim>1</dim>
				</port>
			</output>
		</layer>
		<layer id="234" name="/model.4/model.4.2/branch2/branch2.3/Conv_output_0" type="Add" version="opset1">
			<data auto_broadcast="numpy"/>
			<rt_info>
				<attribute name="fused_names" version="0" value="/model.4/model.4.2/branch2/branch2.3/Conv_output_0, Concat_2752, Reshape_2753"/>
			</rt_info>
			<input>
				<port id="0" precision="FP32">
					<dim>1</dim>
					<dim>64</dim>
					<dim>26</dim>
					<dim>26</dim>
				</port>
				<port id="1" precision="FP32">
					<dim>1</dim>
					<dim>64</dim>
					<dim>1</dim>
					<dim>1</dim>
				</port>
			</input>
			<output>
				<port id="2" precision="FP32" names="/model.4/model.4.2/branch2/branch2.3/Conv_output_0">
					<dim>1</dim>
					<dim>64</dim>
					<dim>26</dim>
					<dim>26</dim>
				</port>
			</output>
		</layer>
		<layer id="235" name="onnx::Conv_1387" type="Const" version="opset1">
			<data element_type="f32" shape="64, 64, 1, 1" offset="194984" size="16384"/>
			<rt_info>
				<attribute name="fused_names" version="0" value="onnx::Conv_1387"/>
			</rt_info>
			<output>
				<port id="0" precision="FP32" names="onnx::Conv_1387">
					<dim>64</dim>
					<dim>64</dim>
					<dim>1</dim>
					<dim>1</dim>
				</port>
			</output>
		</layer>
		<layer id="236" name="Convolution_2781" type="Convolution" version="opset1">
			<data strides="1, 1" dilations="1, 1" pads_begin="0, 0" pads_end="0, 0" auto_pad="explicit"/>
			<rt_info>
				<attribute name="fused_names" version="0" value="Convolution_2781"/>
			</rt_info>
			<input>
				<port id="0" precision="FP32">
					<dim>1</dim>
					<dim>64</dim>
					<dim>26</dim>
					<dim>26</dim>
				</port>
				<port id="1" precision="FP32">
					<dim>64</dim>
					<dim>64</dim>
					<dim>1</dim>
					<dim>1</dim>
				</port>
			</input>
			<output>
				<port id="2" precision="FP32">
					<dim>1</dim>
					<dim>64</dim>
					<dim>26</dim>
					<dim>26</dim>
				</port>
			</output>
		</layer>
		<layer id="237" name="Reshape_2801" type="Const" version="opset1">
			<data element_type="f32" shape="1, 64, 1, 1" offset="211368" size="256"/>
			<output>
				<port id="0" precision="FP32">
					<dim>1</dim>
					<dim>64</dim>
					<dim>1</dim>
					<dim>1</dim>
				</port>
			</output>
		</layer>
		<layer id="238" name="/model.4/model.4.2/branch2/branch2.5/Conv_output_0" type="Add" version="opset1">
			<data auto_broadcast="numpy"/>
			<rt_info>
				<attribute name="fused_names" version="0" value="/model.4/model.4.2/branch2/branch2.5/Conv_output_0, Concat_2800, Reshape_2801"/>
			</rt_info>
			<input>
				<port id="0" precision="FP32">
					<dim>1</dim>
					<dim>64</dim>
					<dim>26</dim>
					<dim>26</dim>
				</port>
				<port id="1" precision="FP32">
					<dim>1</dim>
					<dim>64</dim>
					<dim>1</dim>
					<dim>1</dim>
				</port>
			</input>
			<output>
				<port id="2" precision="FP32" names="/model.4/model.4.2/branch2/branch2.5/Conv_output_0">
					<dim>1</dim>
					<dim>64</dim>
					<dim>26</dim>
					<dim>26</dim>
				</port>
			</output>
		</layer>
		<layer id="239" name="/model.4/model.4.2/branch2/branch2.7/Mul_output_0" type="Swish" version="opset4">
			<rt_info>
				<attribute name="fused_names" version="0" value="/model.4/model.4.2/branch2/branch2.7/Mul_output_0, /model.4/model.4.2/branch2/branch2.7/Sigmoid_output_0"/>
			</rt_info>
			<input>
				<port id="0" precision="FP32">
					<dim>1</dim>
					<dim>64</dim>
					<dim>26</dim>
					<dim>26</dim>
				</port>
			</input>
			<output>
				<port id="1" precision="FP32" names="/model.4/model.4.2/branch2/branch2.7/Mul_output_0">
					<dim>1</dim>
					<dim>64</dim>
					<dim>26</dim>
					<dim>26</dim>
				</port>
			</output>
		</layer>
		<layer id="240" name="/model.4/model.4.2/Concat_output_0" type="Concat" version="opset1">
			<data axis="1"/>
			<rt_info>
				<attribute name="fused_names" version="0" value="/model.4/model.4.2/Concat_output_0"/>
			</rt_info>
			<input>
				<port id="0" precision="FP32">
					<dim>1</dim>
					<dim>64</dim>
					<dim>26</dim>
					<dim>26</dim>
				</port>
				<port id="1" precision="FP32">
					<dim>1</dim>
					<dim>64</dim>
					<dim>26</dim>
					<dim>26</dim>
				</port>
			</input>
			<output>
				<port id="2" precision="FP32" names="/model.4/model.4.2/Concat_output_0">
					<dim>1</dim>
					<dim>128</dim>
					<dim>26</dim>
					<dim>26</dim>
				</port>
			</output>
		</layer>
		<layer id="241" name="/model.4/model.4.2/Reshape_output_0" type="Reshape" version="opset1">
			<data special_zero="true"/>
			<rt_info>
				<attribute name="fused_names" version="0" value="/model.4/model.4.2/Reshape_output_0"/>
			</rt_info>
			<input>
				<port id="0" precision="FP32">
					<dim>1</dim>
					<dim>128</dim>
					<dim>26</dim>
					<dim>26</dim>
				</port>
				<port id="1" precision="I64">
					<dim>5</dim>
				</port>
			</input>
			<output>
				<port id="2" precision="FP32" names="/model.4/model.4.2/Reshape_output_0">
					<dim>1</dim>
					<dim>2</dim>
					<dim>64</dim>
					<dim>26</dim>
					<dim>26</dim>
				</port>
			</output>
		</layer>
		<layer id="242" name="Constant_2835" type="Const" version="opset1">
			<data element_type="i64" shape="5" offset="19656" size="40"/>
			<rt_info>
				<attribute name="fused_names" version="0" value="Constant_2835"/>
			</rt_info>
			<output>
				<port id="0" precision="I64">
					<dim>5</dim>
				</port>
			</output>
		</layer>
		<layer id="243" name="/model.4/model.4.2/Transpose_output_0" type="Transpose" version="opset1">
			<rt_info>
				<attribute name="fused_names" version="0" value="/model.4/model.4.2/Transpose_output_0"/>
			</rt_info>
			<input>
				<port id="0" precision="FP32">
					<dim>1</dim>
					<dim>2</dim>
					<dim>64</dim>
					<dim>26</dim>
					<dim>26</dim>
				</port>
				<port id="1" precision="I64">
					<dim>5</dim>
				</port>
			</input>
			<output>
				<port id="2" precision="FP32" names="/model.4/model.4.2/Transpose_output_0">
					<dim>1</dim>
					<dim>64</dim>
					<dim>2</dim>
					<dim>26</dim>
					<dim>26</dim>
				</port>
			</output>
		</layer>
		<layer id="244" name="/model.4/model.4.2/Reshape_1_output_0" type="Reshape" version="opset1">
			<data special_zero="true"/>
			<rt_info>
				<attribute name="fused_names" version="0" value="/model.4/model.4.2/Reshape_1_output_0"/>
			</rt_info>
			<input>
				<port id="0" precision="FP32">
					<dim>1</dim>
					<dim>64</dim>
					<dim>2</dim>
					<dim>26</dim>
					<dim>26</dim>
				</port>
				<port id="1" precision="I64">
					<dim>4</dim>
				</port>
			</input>
			<output>
				<port id="2" precision="FP32" names="/model.4/model.4.2/Reshape_1_output_0">
					<dim>1</dim>
					<dim>128</dim>
					<dim>26</dim>
					<dim>26</dim>
				</port>
			</output>
		</layer>
		<layer id="245" name="Constant_13272" type="Const" version="opset1">
			<data element_type="i64" shape="2" offset="19728" size="16"/>
			<rt_info>
				<attribute name="fused_names" version="0" value="/model.4/model.4.3/Slice_output_0, Broadcast_2842"/>
			</rt_info>
			<output>
				<port id="0" precision="I64">
					<dim>2</dim>
				</port>
			</output>
		</layer>
		<layer id="246" name="Constant_13275" type="Const" version="opset1">
			<data element_type="i64" shape="2" offset="19776" size="16"/>
			<rt_info>
				<attribute name="fused_names" version="0" value="/model.4/model.4.3/Slice_output_0, Broadcast_2842"/>
			</rt_info>
			<output>
				<port id="0" precision="I64">
					<dim>2</dim>
				</port>
			</output>
		</layer>
		<layer id="247" name="Constant_13278" type="Const" version="opset1">
			<data element_type="i64" shape="2" offset="19760" size="16"/>
			<rt_info>
				<attribute name="fused_names" version="0" value="/model.4/model.4.3/Slice_output_0, Broadcast_2842"/>
			</rt_info>
			<output>
				<port id="0" precision="I64">
					<dim>2</dim>
				</port>
			</output>
		</layer>
		<layer id="248" name="/model.4/model.4.3/Slice_output_0" type="StridedSlice" version="opset1">
			<data begin_mask="1, 0" end_mask="1, 0" new_axis_mask="" shrink_axis_mask="" ellipsis_mask=""/>
			<rt_info>
				<attribute name="fused_names" version="0" value="/model.4/model.4.3/Slice_output_0, Broadcast_2842"/>
			</rt_info>
			<input>
				<port id="0" precision="FP32">
					<dim>1</dim>
					<dim>128</dim>
					<dim>26</dim>
					<dim>26</dim>
				</port>
				<port id="1" precision="I64">
					<dim>2</dim>
				</port>
				<port id="2" precision="I64">
					<dim>2</dim>
				</port>
				<port id="3" precision="I64">
					<dim>2</dim>
				</port>
			</input>
			<output>
				<port id="4" precision="FP32" names="/model.4/model.4.3/Slice_output_0">
					<dim>1</dim>
					<dim>64</dim>
					<dim>26</dim>
					<dim>26</dim>
				</port>
			</output>
		</layer>
		<layer id="249" name="Constant_13284" type="Const" version="opset1">
			<data element_type="i64" shape="2" offset="19776" size="16"/>
			<rt_info>
				<attribute name="fused_names" version="0" value="/model.4/model.4.3/Slice_1_output_0, Broadcast_2861"/>
			</rt_info>
			<output>
				<port id="0" precision="I64">
					<dim>2</dim>
				</port>
			</output>
		</layer>
		<layer id="250" name="Constant_13287" type="Const" version="opset1">
			<data element_type="i64" shape="2" offset="104088" size="16"/>
			<rt_info>
				<attribute name="fused_names" version="0" value="/model.4/model.4.3/Slice_1_output_0, Broadcast_2861"/>
			</rt_info>
			<output>
				<port id="0" precision="I64">
					<dim>2</dim>
				</port>
			</output>
		</layer>
		<layer id="251" name="Constant_13290" type="Const" version="opset1">
			<data element_type="i64" shape="2" offset="19760" size="16"/>
			<rt_info>
				<attribute name="fused_names" version="0" value="/model.4/model.4.3/Slice_1_output_0, Broadcast_2861"/>
			</rt_info>
			<output>
				<port id="0" precision="I64">
					<dim>2</dim>
				</port>
			</output>
		</layer>
		<layer id="252" name="/model.4/model.4.3/Slice_1_output_0" type="StridedSlice" version="opset1">
			<data begin_mask="1, 0" end_mask="1, 0" new_axis_mask="" shrink_axis_mask="" ellipsis_mask=""/>
			<rt_info>
				<attribute name="fused_names" version="0" value="/model.4/model.4.3/Slice_1_output_0, Broadcast_2861"/>
			</rt_info>
			<input>
				<port id="0" precision="FP32">
					<dim>1</dim>
					<dim>128</dim>
					<dim>26</dim>
					<dim>26</dim>
				</port>
				<port id="1" precision="I64">
					<dim>2</dim>
				</port>
				<port id="2" precision="I64">
					<dim>2</dim>
				</port>
				<port id="3" precision="I64">
					<dim>2</dim>
				</port>
			</input>
			<output>
				<port id="4" precision="FP32" names="/model.4/model.4.3/Slice_1_output_0">
					<dim>1</dim>
					<dim>64</dim>
					<dim>26</dim>
					<dim>26</dim>
				</port>
			</output>
		</layer>
		<layer id="253" name="onnx::Conv_1390" type="Const" version="opset1">
			<data element_type="f32" shape="64, 64, 1, 1" offset="211624" size="16384"/>
			<rt_info>
				<attribute name="fused_names" version="0" value="onnx::Conv_1390"/>
			</rt_info>
			<output>
				<port id="0" precision="FP32" names="onnx::Conv_1390">
					<dim>64</dim>
					<dim>64</dim>
					<dim>1</dim>
					<dim>1</dim>
				</port>
			</output>
		</layer>
		<layer id="254" name="Convolution_2878" type="Convolution" version="opset1">
			<data strides="1, 1" dilations="1, 1" pads_begin="0, 0" pads_end="0, 0" auto_pad="explicit"/>
			<rt_info>
				<attribute name="fused_names" version="0" value="Convolution_2878"/>
			</rt_info>
			<input>
				<port id="0" precision="FP32">
					<dim>1</dim>
					<dim>64</dim>
					<dim>26</dim>
					<dim>26</dim>
				</port>
				<port id="1" precision="FP32">
					<dim>64</dim>
					<dim>64</dim>
					<dim>1</dim>
					<dim>1</dim>
				</port>
			</input>
			<output>
				<port id="2" precision="FP32">
					<dim>1</dim>
					<dim>64</dim>
					<dim>26</dim>
					<dim>26</dim>
				</port>
			</output>
		</layer>
		<layer id="255" name="Reshape_2898" type="Const" version="opset1">
			<data element_type="f32" shape="1, 64, 1, 1" offset="228008" size="256"/>
			<output>
				<port id="0" precision="FP32">
					<dim>1</dim>
					<dim>64</dim>
					<dim>1</dim>
					<dim>1</dim>
				</port>
			</output>
		</layer>
		<layer id="256" name="/model.4/model.4.3/branch2/branch2.0/Conv_output_0" type="Add" version="opset1">
			<data auto_broadcast="numpy"/>
			<rt_info>
				<attribute name="fused_names" version="0" value="/model.4/model.4.3/branch2/branch2.0/Conv_output_0, Concat_2897, Reshape_2898"/>
			</rt_info>
			<input>
				<port id="0" precision="FP32">
					<dim>1</dim>
					<dim>64</dim>
					<dim>26</dim>
					<dim>26</dim>
				</port>
				<port id="1" precision="FP32">
					<dim>1</dim>
					<dim>64</dim>
					<dim>1</dim>
					<dim>1</dim>
				</port>
			</input>
			<output>
				<port id="2" precision="FP32" names="/model.4/model.4.3/branch2/branch2.0/Conv_output_0">
					<dim>1</dim>
					<dim>64</dim>
					<dim>26</dim>
					<dim>26</dim>
				</port>
			</output>
		</layer>
		<layer id="257" name="/model.4/model.4.3/branch2/branch2.2/Mul_output_0" type="Swish" version="opset4">
			<rt_info>
				<attribute name="fused_names" version="0" value="/model.4/model.4.3/branch2/branch2.2/Mul_output_0, /model.4/model.4.3/branch2/branch2.2/Sigmoid_output_0"/>
			</rt_info>
			<input>
				<port id="0" precision="FP32">
					<dim>1</dim>
					<dim>64</dim>
					<dim>26</dim>
					<dim>26</dim>
				</port>
			</input>
			<output>
				<port id="1" precision="FP32" names="/model.4/model.4.3/branch2/branch2.2/Mul_output_0">
					<dim>1</dim>
					<dim>64</dim>
					<dim>26</dim>
					<dim>26</dim>
				</port>
			</output>
		</layer>
		<layer id="258" name="Reshape_2935" type="Const" version="opset1">
			<data element_type="f32" shape="64, 1, 1, 3, 3" offset="228264" size="2304"/>
			<output>
				<port id="0" precision="FP32">
					<dim>64</dim>
					<dim>1</dim>
					<dim>1</dim>
					<dim>3</dim>
					<dim>3</dim>
				</port>
			</output>
		</layer>
		<layer id="259" name="GroupConvolution_3001" type="GroupConvolution" version="opset1">
			<data strides="1, 1" pads_begin="1, 1" pads_end="1, 1" dilations="1, 1" auto_pad="explicit"/>
			<rt_info>
				<attribute name="fused_names" version="0" value="GroupConvolution_3001, Reshape_2935"/>
			</rt_info>
			<input>
				<port id="0" precision="FP32">
					<dim>1</dim>
					<dim>64</dim>
					<dim>26</dim>
					<dim>26</dim>
				</port>
				<port id="1" precision="FP32">
					<dim>64</dim>
					<dim>1</dim>
					<dim>1</dim>
					<dim>3</dim>
					<dim>3</dim>
				</port>
			</input>
			<output>
				<port id="2" precision="FP32">
					<dim>1</dim>
					<dim>64</dim>
					<dim>26</dim>
					<dim>26</dim>
				</port>
			</output>
		</layer>
		<layer id="260" name="Reshape_3021" type="Const" version="opset1">
			<data element_type="f32" shape="1, 64, 1, 1" offset="230568" size="256"/>
			<output>
				<port id="0" precision="FP32">
					<dim>1</dim>
					<dim>64</dim>
					<dim>1</dim>
					<dim>1</dim>
				</port>
			</output>
		</layer>
		<layer id="261" name="/model.4/model.4.3/branch2/branch2.3/Conv_output_0" type="Add" version="opset1">
			<data auto_broadcast="numpy"/>
			<rt_info>
				<attribute name="fused_names" version="0" value="/model.4/model.4.3/branch2/branch2.3/Conv_output_0, Concat_3020, Reshape_3021"/>
			</rt_info>
			<input>
				<port id="0" precision="FP32">
					<dim>1</dim>
					<dim>64</dim>
					<dim>26</dim>
					<dim>26</dim>
				</port>
				<port id="1" precision="FP32">
					<dim>1</dim>
					<dim>64</dim>
					<dim>1</dim>
					<dim>1</dim>
				</port>
			</input>
			<output>
				<port id="2" precision="FP32" names="/model.4/model.4.3/branch2/branch2.3/Conv_output_0">
					<dim>1</dim>
					<dim>64</dim>
					<dim>26</dim>
					<dim>26</dim>
				</port>
			</output>
		</layer>
		<layer id="262" name="onnx::Conv_1396" type="Const" version="opset1">
			<data element_type="f32" shape="64, 64, 1, 1" offset="230824" size="16384"/>
			<rt_info>
				<attribute name="fused_names" version="0" value="onnx::Conv_1396"/>
			</rt_info>
			<output>
				<port id="0" precision="FP32" names="onnx::Conv_1396">
					<dim>64</dim>
					<dim>64</dim>
					<dim>1</dim>
					<dim>1</dim>
				</port>
			</output>
		</layer>
		<layer id="263" name="Convolution_3049" type="Convolution" version="opset1">
			<data strides="1, 1" dilations="1, 1" pads_begin="0, 0" pads_end="0, 0" auto_pad="explicit"/>
			<rt_info>
				<attribute name="fused_names" version="0" value="Convolution_3049"/>
			</rt_info>
			<input>
				<port id="0" precision="FP32">
					<dim>1</dim>
					<dim>64</dim>
					<dim>26</dim>
					<dim>26</dim>
				</port>
				<port id="1" precision="FP32">
					<dim>64</dim>
					<dim>64</dim>
					<dim>1</dim>
					<dim>1</dim>
				</port>
			</input>
			<output>
				<port id="2" precision="FP32">
					<dim>1</dim>
					<dim>64</dim>
					<dim>26</dim>
					<dim>26</dim>
				</port>
			</output>
		</layer>
		<layer id="264" name="Reshape_3069" type="Const" version="opset1">
			<data element_type="f32" shape="1, 64, 1, 1" offset="247208" size="256"/>
			<output>
				<port id="0" precision="FP32">
					<dim>1</dim>
					<dim>64</dim>
					<dim>1</dim>
					<dim>1</dim>
				</port>
			</output>
		</layer>
		<layer id="265" name="/model.4/model.4.3/branch2/branch2.5/Conv_output_0" type="Add" version="opset1">
			<data auto_broadcast="numpy"/>
			<rt_info>
				<attribute name="fused_names" version="0" value="/model.4/model.4.3/branch2/branch2.5/Conv_output_0, Concat_3068, Reshape_3069"/>
			</rt_info>
			<input>
				<port id="0" precision="FP32">
					<dim>1</dim>
					<dim>64</dim>
					<dim>26</dim>
					<dim>26</dim>
				</port>
				<port id="1" precision="FP32">
					<dim>1</dim>
					<dim>64</dim>
					<dim>1</dim>
					<dim>1</dim>
				</port>
			</input>
			<output>
				<port id="2" precision="FP32" names="/model.4/model.4.3/branch2/branch2.5/Conv_output_0">
					<dim>1</dim>
					<dim>64</dim>
					<dim>26</dim>
					<dim>26</dim>
				</port>
			</output>
		</layer>
		<layer id="266" name="/model.4/model.4.3/branch2/branch2.7/Mul_output_0" type="Swish" version="opset4">
			<rt_info>
				<attribute name="fused_names" version="0" value="/model.4/model.4.3/branch2/branch2.7/Mul_output_0, /model.4/model.4.3/branch2/branch2.7/Sigmoid_output_0"/>
			</rt_info>
			<input>
				<port id="0" precision="FP32">
					<dim>1</dim>
					<dim>64</dim>
					<dim>26</dim>
					<dim>26</dim>
				</port>
			</input>
			<output>
				<port id="1" precision="FP32" names="/model.4/model.4.3/branch2/branch2.7/Mul_output_0">
					<dim>1</dim>
					<dim>64</dim>
					<dim>26</dim>
					<dim>26</dim>
				</port>
			</output>
		</layer>
		<layer id="267" name="/model.4/model.4.3/Concat_output_0" type="Concat" version="opset1">
			<data axis="1"/>
			<rt_info>
				<attribute name="fused_names" version="0" value="/model.4/model.4.3/Concat_output_0"/>
			</rt_info>
			<input>
				<port id="0" precision="FP32">
					<dim>1</dim>
					<dim>64</dim>
					<dim>26</dim>
					<dim>26</dim>
				</port>
				<port id="1" precision="FP32">
					<dim>1</dim>
					<dim>64</dim>
					<dim>26</dim>
					<dim>26</dim>
				</port>
			</input>
			<output>
				<port id="2" precision="FP32" names="/model.4/model.4.3/Concat_output_0">
					<dim>1</dim>
					<dim>128</dim>
					<dim>26</dim>
					<dim>26</dim>
				</port>
			</output>
		</layer>
		<layer id="268" name="/model.4/model.4.3/Reshape_output_0" type="Reshape" version="opset1">
			<data special_zero="true"/>
			<rt_info>
				<attribute name="fused_names" version="0" value="/model.4/model.4.3/Reshape_output_0"/>
			</rt_info>
			<input>
				<port id="0" precision="FP32">
					<dim>1</dim>
					<dim>128</dim>
					<dim>26</dim>
					<dim>26</dim>
				</port>
				<port id="1" precision="I64">
					<dim>5</dim>
				</port>
			</input>
			<output>
				<port id="2" precision="FP32" names="/model.4/model.4.3/Reshape_output_0">
					<dim>1</dim>
					<dim>2</dim>
					<dim>64</dim>
					<dim>26</dim>
					<dim>26</dim>
				</port>
			</output>
		</layer>
		<layer id="269" name="Constant_3103" type="Const" version="opset1">
			<data element_type="i64" shape="5" offset="19656" size="40"/>
			<rt_info>
				<attribute name="fused_names" version="0" value="Constant_3103"/>
			</rt_info>
			<output>
				<port id="0" precision="I64">
					<dim>5</dim>
				</port>
			</output>
		</layer>
		<layer id="270" name="/model.4/model.4.3/Transpose_output_0" type="Transpose" version="opset1">
			<rt_info>
				<attribute name="fused_names" version="0" value="/model.4/model.4.3/Transpose_output_0"/>
			</rt_info>
			<input>
				<port id="0" precision="FP32">
					<dim>1</dim>
					<dim>2</dim>
					<dim>64</dim>
					<dim>26</dim>
					<dim>26</dim>
				</port>
				<port id="1" precision="I64">
					<dim>5</dim>
				</port>
			</input>
			<output>
				<port id="2" precision="FP32" names="/model.4/model.4.3/Transpose_output_0">
					<dim>1</dim>
					<dim>64</dim>
					<dim>2</dim>
					<dim>26</dim>
					<dim>26</dim>
				</port>
			</output>
		</layer>
		<layer id="271" name="/model.4/model.4.3/Reshape_1_output_0" type="Reshape" version="opset1">
			<data special_zero="true"/>
			<rt_info>
				<attribute name="fused_names" version="0" value="/model.4/model.4.3/Reshape_1_output_0"/>
			</rt_info>
			<input>
				<port id="0" precision="FP32">
					<dim>1</dim>
					<dim>64</dim>
					<dim>2</dim>
					<dim>26</dim>
					<dim>26</dim>
				</port>
				<port id="1" precision="I64">
					<dim>4</dim>
				</port>
			</input>
			<output>
…
		<edge from-layer="247" from-port="0" to-layer="248" to-port="3"/>
		<edge from-layer="248" from-port="4" to-layer="267" to-port="0"/>
		<edge from-layer="249" from-port="0" to-layer="252" to-port="1"/>
		<edge from-layer="250" from-port="0" to-layer="252" to-port="2"/>
		<edge from-layer="251" from-port="0" to-layer="252" to-port="3"/>
		<edge from-layer="252" from-port="4" to-layer="254" to-port="0"/>
		<edge from-layer="253" from-port="0" to-layer="254" to-port="1"/>
		<edge from-layer="254" from-port="2" to-layer="256" to-port="0"/>
		<edge from-layer="255" from-port="0" to-layer="256" to-port="1"/>
		<edge from-layer="256" from-port="2" to-layer="257" to-port="0"/>
		<edge from-layer="257" from-port="1" to-layer="259" to-port="0"/>
		<edge from-layer="258" from-port="0" to-layer="259" to-port="1"/>
		<edge from-layer="259" from-port="2" to-layer="261" to-port="0"/>
		<edge from-layer="260" from-port="0" to-layer="261" to-port="1"/>
		<edge from-layer="261" from-port="2" to-layer="263" to-port="0"/>
		<edge from-layer="262" from-port="0" to-layer="263" to-port="1"/>
		<edge from-layer="263" from-port="2" to-layer="265" to-port="0"/>
		<edge from-layer="264" from-port="0" to-layer="265" to-port="1"/>
		<edge from-layer="265" from-port="2" to-layer="266" to-port="0"/>
		<edge from-layer="266" from-port="1" to-layer="267" to-port="1"/>
		<edge from-layer="267" from-port="2" to-layer="268" to-port="0"/>
		<edge from-layer="268" from-port="2" to-layer="270" to-port="0"/>
		<edge from-layer="269" from-port="0" to-layer="270" to-port="1"/>
		<edge from-layer="270" from-port="2" to-layer="271" to-port="0"/>
		<edge from-layer="271" from-port="2" to-layer="279" to-port="0"/>
		<edge from-layer="271" from-port="2" to-layer="275" to-port="0"/>
		<edge from-layer="272" from-port="0" to-layer="275" to-port="1"/>
		<edge from-layer="273" from-port="0" to-layer="275" to-port="2"/>
		<edge from-layer="274" from-port="0" to-layer="275" to-port="3"/>
		<edge from-layer="275" from-port="4" to-layer="294" to-port="0"/>
		<edge from-layer="276" from-port="0" to-layer="279" to-port="1"/>
		<edge from-layer="277" from-port="0" to-layer="279" to-port="2"/>
		<edge from-layer="278" from-port="0" to-layer="279" to-port="3"/>
		<edge from-layer="279" from-port="4" to-layer="281" to-port="0"/>
		<edge from-layer="280" from-port="0" to-layer="281" to-port="1"/>
		<edge from-layer="281" from-port="2" to-layer="283" to-port="0"/>
		<edge from-layer="282" from-port="0" to-layer="283" to-port="1"/>
		<edge from-layer="283" from-port="2" to-layer="284" to-port="0"/>
		<edge from-layer="284" from-port="1" to-layer="286" to-port="0"/>
		<edge from-layer="285" from-port="0" to-layer="286" to-port="1"/>
		<edge from-layer="286" from-port="2" to-layer="288" to-port="0"/>
		<edge from-layer="287" from-port="0" to-layer="288" to-port="1"/>
		<edge from-layer="288" from-port="2" to-layer="290" to-port="0"/>
		<edge from-layer="289" from-port="0" to-layer="290" to-port="1"/>
		<edge from-layer="290" from-port="2" to-layer="292" to-port="0"/>
		<edge from-layer="291" from-port="0" to-layer="292" to-port="1"/>
		<edge from-layer="292" from-port="2" to-layer="293" to-port="0"/>
		<edge from-layer="293" from-port="1" to-layer="294" to-port="1"/>
		<edge from-layer="294" from-port="2" to-layer="295" to-port="0"/>
		<edge from-layer="295" from-port="2" to-layer="297" to-port="0"/>
		<edge from-layer="296" from-port="0" to-layer="297" to-port="1"/>
		<edge from-layer="297" from-port="2" to-layer="298" to-port="0"/>
		<edge from-layer="298" from-port="2" to-layer="302" to-port="0"/>
		<edge from-layer="298" from-port="2" to-layer="306" to-port="0"/>
		<edge from-layer="299" from-port="0" to-layer="302" to-port="1"/>
		<edge from-layer="300" from-port="0" to-layer="302" to-port="2"/>
		<edge from-layer="301" from-port="0" to-layer="302" to-port="3"/>
		<edge from-layer="302" from-port="4" to-layer="321" to-port="0"/>
		<edge from-layer="303" from-port="0" to-layer="306" to-port="1"/>
		<edge from-layer="304" from-port="0" to-layer="306" to-port="2"/>
		<edge from-layer="305" from-port="0" to-layer="306" to-port="3"/>
		<edge from-layer="306" from-port="4" to-layer="308" to-port="0"/>
		<edge from-layer="307" from-port="0" to-layer="308" to-port="1"/>
		<edge from-layer="308" from-port="2" to-layer="310" to-port="0"/>
		<edge from-layer="309" from-port="0" to-layer="310" to-port="1"/>
		<edge from-layer="310" from-port="2" to-layer="311" to-port="0"/>
		<edge from-layer="311" from-port="1" to-layer="313" to-port="0"/>
		<edge from-layer="312" from-port="0" to-layer="313" to-port="1"/>
		<edge from-layer="313" from-port="2" to-layer="315" to-port="0"/>
		<edge from-layer="314" from-port="0" to-layer="315" to-port="1"/>
		<edge from-layer="315" from-port="2" to-layer="317" to-port="0"/>
		<edge from-layer="316" from-port="0" to-layer="317" to-port="1"/>
		<edge from-layer="317" from-port="2" to-layer="319" to-port="0"/>
		<edge from-layer="318" from-port="0" to-layer="319" to-port="1"/>
		<edge from-layer="319" from-port="2" to-layer="320" to-port="0"/>
		<edge from-layer="320" from-port="1" to-layer="321" to-port="1"/>
		<edge from-layer="321" from-port="2" to-layer="322" to-port="0"/>
		<edge from-layer="322" from-port="2" to-layer="324" to-port="0"/>
		<edge from-layer="323" from-port="0" to-layer="324" to-port="1"/>
		<edge from-layer="324" from-port="2" to-layer="325" to-port="0"/>
		<edge from-layer="325" from-port="2" to-layer="333" to-port="0"/>
		<edge from-layer="325" from-port="2" to-layer="329" to-port="0"/>
		<edge from-layer="326" from-port="0" to-layer="329" to-port="1"/>
		<edge from-layer="327" from-port="0" to-layer="329" to-port="2"/>
		<edge from-layer="328" from-port="0" to-layer="329" to-port="3"/>
		<edge from-layer="329" from-port="4" to-layer="348" to-port="0"/>
		<edge from-layer="330" from-port="0" to-layer="333" to-port="1"/>
		<edge from-layer="331" from-port="0" to-layer="333" to-port="2"/>
		<edge from-layer="332" from-port="0" to-layer="333" to-port="3"/>
		<edge from-layer="333" from-port="4" to-layer="335" to-port="0"/>
		<edge from-layer="334" from-port="0" to-layer="335" to-port="1"/>
		<edge from-layer="335" from-port="2" to-layer="337" to-port="0"/>
		<edge from-layer="336" from-port="0" to-layer="337" to-port="1"/>
		<edge from-layer="337" from-port="2" to-layer="338" to-port="0"/>
		<edge from-layer="338" from-port="1" to-layer="340" to-port="0"/>
		<edge from-layer="339" from-port="0" to-layer="340" to-port="1"/>
		<edge from-layer="340" from-port="2" to-layer="342" to-port="0"/>
		<edge from-layer="341" from-port="0" to-layer="342" to-port="1"/>
		<edge from-layer="342" from-port="2" to-layer="344" to-port="0"/>
		<edge from-layer="343" from-port="0" to-layer="344" to-port="1"/>
		<edge from-layer="344" from-port="2" to-layer="346" to-port="0"/>
		<edge from-layer="345" from-port="0" to-layer="346" to-port="1"/>
		<edge from-layer="346" from-port="2" to-layer="347" to-port="0"/>
		<edge from-layer="347" from-port="1" to-layer="348" to-port="1"/>
		<edge from-layer="348" from-port="2" to-layer="349" to-port="0"/>
		<edge from-layer="349" from-port="2" to-layer="351" to-port="0"/>
		<edge from-layer="350" from-port="0" to-layer="351" to-port="1"/>
		<edge from-layer="351" from-port="2" to-layer="352" to-port="0"/>
		<edge from-layer="352" from-port="2" to-layer="363" to-port="0"/>
		<edge from-layer="352" from-port="2" to-layer="354" to-port="0"/>
		<edge from-layer="352" from-port="2" to-layer="475" to-port="1"/>
		<edge from-layer="353" from-port="0" to-layer="354" to-port="1"/>
		<edge from-layer="354" from-port="2" to-layer="356" to-port="0"/>
		<edge from-layer="355" from-port="0" to-layer="356" to-port="1"/>
		<edge from-layer="356" from-port="2" to-layer="358" to-port="0"/>
		<edge from-layer="357" from-port="0" to-layer="358" to-port="1"/>
		<edge from-layer="358" from-port="2" to-layer="360" to-port="0"/>
		<edge from-layer="359" from-port="0" to-layer="360" to-port="1"/>
		<edge from-layer="360" from-port="2" to-layer="361" to-port="0"/>
		<edge from-layer="361" from-port="1" to-layer="376" to-port="0"/>
		<edge from-layer="362" from-port="0" to-layer="363" to-port="1"/>
		<edge from-layer="363" from-port="2" to-layer="365" to-port="0"/>
		<edge from-layer="364" from-port="0" to-layer="365" to-port="1"/>
		<edge from-layer="365" from-port="2" to-layer="366" to-port="0"/>
		<edge from-layer="366" from-port="1" to-layer="368" to-port="0"/>
		<edge from-layer="367" from-port="0" to-layer="368" to-port="1"/>
		<edge from-layer="368" from-port="2" to-layer="370" to-port="0"/>
		<edge from-layer="369" from-port="0" to-layer="370" to-port="1"/>
		<edge from-layer="370" from-port="2" to-layer="372" to-port="0"/>
		<edge from-layer="371" from-port="0" to-layer="372" to-port="1"/>
		<edge from-layer="372" from-port="2" to-layer="374" to-port="0"/>
		<edge from-layer="373" from-port="0" to-layer="374" to-port="1"/>
		<edge from-layer="374" from-port="2" to-layer="375" to-port="0"/>
		<edge from-layer="375" from-port="1" to-layer="376" to-port="1"/>
		<edge from-layer="376" from-port="2" to-layer="378" to-port="0"/>
		<edge from-layer="377" from-port="0" to-layer="406" to-port="1"/>
		<edge from-layer="377" from-port="0" to-layer="460" to-port="1"/>
		<edge from-layer="377" from-port="0" to-layer="433" to-port="1"/>
		<edge from-layer="377" from-port="0" to-layer="378" to-port="1"/>
		<edge from-layer="378" from-port="2" to-layer="380" to-port="0"/>
		<edge from-layer="379" from-port="0" to-layer="380" to-port="1"/>
		<edge from-layer="380" from-port="2" to-layer="382" to-port="0"/>
		<edge from-layer="381" from-port="0" to-layer="382" to-port="1"/>
		<edge from-layer="381" from-port="0" to-layer="463" to-port="1"/>
		<edge from-layer="381" from-port="0" to-layer="409" to-port="1"/>
		<edge from-layer="381" from-port="0" to-layer="436" to-port="1"/>
		<edge from-layer="382" from-port="2" to-layer="390" to-port="0"/>
		<edge from-layer="382" from-port="2" to-layer="386" to-port="0"/>
		<edge from-layer="383" from-port="0" to-layer="386" to-port="1"/>
		<edge from-layer="384" from-port="0" to-layer="386" to-port="2"/>
		<edge from-layer="385" from-port="0" to-layer="386" to-port="3"/>
		<edge from-layer="386" from-port="4" to-layer="405" to-port="0"/>
		<edge from-layer="387" from-port="0" to-layer="390" to-port="1"/>
		<edge from-layer="388" from-port="0" to-layer="390" to-port="2"/>
		<edge from-layer="389" from-port="0" to-layer="390" to-port="3"/>
		<edge from-layer="390" from-port="4" to-layer="392" to-port="0"/>
		<edge from-layer="391" from-port="0" to-layer="392" to-port="1"/>
		<edge from-layer="392" from-port="2" to-layer="394" to-port="0"/>
		<edge from-layer="393" from-port="0" to-layer="394" to-port="1"/>
		<edge from-layer="394" from-port="2" to-layer="395" to-port="0"/>
		<edge from-layer="395" from-port="1" to-layer="397" to-port="0"/>
		<edge from-layer="396" from-port="0" to-layer="397" to-port="1"/>
		<edge from-layer="397" from-port="2" to-layer="399" to-port="0"/>
		<edge from-layer="398" from-port="0" to-layer="399" to-port="1"/>
		<edge from-layer="399" from-port="2" to-layer="401" to-port="0"/>
		<edge from-layer="400" from-port="0" to-layer="401" to-port="1"/>
		<edge from-layer="401" from-port="2" to-layer="403" to-port="0"/>
		<edge from-layer="402" from-port="0" to-layer="403" to-port="1"/>
		<edge from-layer="403" from-port="2" to-layer="404" to-port="0"/>
		<edge from-layer="404" from-port="1" to-layer="405" to-port="1"/>
		<edge from-layer="405" from-port="2" to-layer="406" to-port="0"/>
		<edge from-layer="406" from-port="2" to-layer="408" to-port="0"/>
		<edge from-layer="407" from-port="0" to-layer="408" to-port="1"/>
		<edge from-layer="408" from-port="2" to-layer="409" to-port="0"/>
		<edge from-layer="409" from-port="2" to-layer="417" to-port="0"/>
		<edge from-layer="409" from-port="2" to-layer="413" to-port="0"/>
		<edge from-layer="410" from-port="0" to-layer="413" to-port="1"/>
		<edge from-layer="411" from-port="0" to-layer="413" to-port="2"/>
		<edge from-layer="412" from-port="0" to-layer="413" to-port="3"/>
		<edge from-layer="413" from-port="4" to-layer="432" to-port="0"/>
		<edge from-layer="414" from-port="0" to-layer="417" to-port="1"/>
		<edge from-layer="415" from-port="0" to-layer="417" to-port="2"/>
		<edge from-layer="416" from-port="0" to-layer="417" to-port="3"/>
		<edge from-layer="417" from-port="4" to-layer="419" to-port="0"/>
		<edge from-layer="418" from-port="0" to-layer="419" to-port="1"/>
		<edge from-layer="419" from-port="2" to-layer="421" to-port="0"/>
		<edge from-layer="420" from-port="0" to-layer="421" to-port="1"/>
		<edge from-layer="421" from-port="2" to-layer="422" to-port="0"/>
		<edge from-layer="422" from-port="1" to-layer="424" to-port="0"/>
		<edge from-layer="423" from-port="0" to-layer="424" to-port="1"/>
		<edge from-layer="424" from-port="2" to-layer="426" to-port="0"/>
		<edge from-layer="425" from-port="0" to-layer="426" to-port="1"/>
		<edge from-layer="426" from-port="2" to-layer="428" to-port="0"/>
		<edge from-layer="427" from-port="0" to-layer="428" to-port="1"/>
		<edge from-layer="428" from-port="2" to-layer="430" to-port="0"/>
		<edge from-layer="429" from-port="0" to-layer="430" to-port="1"/>
		<edge from-layer="430" from-port="2" to-layer="431" to-port="0"/>
		<edge from-layer="431" from-port="1" to-layer="432" to-port="1"/>
		<edge from-layer="432" from-port="2" to-layer="433" to-port="0"/>
		<edge from-layer="433" from-port="2" to-layer="435" to-port="0"/>
		<edge from-layer="434" from-port="0" to-layer="435" to-port="1"/>
		<edge from-layer="435" from-port="2" to-layer="436" to-port="0"/>
		<edge from-layer="436" from-port="2" to-layer="444" to-port="0"/>
		<edge from-layer="436" from-port="2" to-layer="440" to-port="0"/>
		<edge from-layer="437" from-port="0" to-layer="440" to-port="1"/>
		<edge from-layer="438" from-port="0" to-layer="440" to-port="2"/>
		<edge from-layer="439" from-port="0" to-layer="440" to-port="3"/>
		<edge from-layer="440" from-port="4" to-layer="459" to-port="0"/>
		<edge from-layer="441" from-port="0" to-layer="444" to-port="1"/>
		<edge from-layer="442" from-port="0" to-layer="444" to-port="2"/>
		<edge from-layer="443" from-port="0" to-layer="444" to-port="3"/>
		<edge from-layer="444" from-port="4" to-layer="446" to-port="0"/>
		<edge from-layer="445" from-port="0" to-layer="446" to-port="1"/>
		<edge from-layer="446" from-port="2" to-layer="448" to-port="0"/>
		<edge from-layer="447" from-port="0" to-layer="448" to-port="1"/>
		<edge from-layer="448" from-port="2" to-layer="449" to-port="0"/>
		<edge from-layer="449" from-port="1" to-layer="451" to-port="0"/>
		<edge from-layer="450" from-port="0" to-layer="451" to-port="1"/>
		<edge from-layer="451" from-port="2" to-layer="453" to-port="0"/>
		<edge from-layer="452" from-port="0" to-layer="453" to-port="1"/>
		<edge from-layer="453" from-port="2" to-layer="455" to-port="0"/>
		<edge from-layer="454" from-port="0" to-layer="455" to-port="1"/>
		<edge from-layer="455" from-port="2" to-layer="457" to-port="0"/>
		<edge from-layer="456" from-port="0" to-layer="457" to-port="1"/>
		<edge from-layer="457" from-port="2" to-layer="458" to-port="0"/>
		<edge from-layer="458" from-port="1" to-layer="459" to-port="1"/>
		<edge from-layer="459" from-port="2" to-layer="460" to-port="0"/>
		<edge from-layer="460" from-port="2" to-layer="462" to-port="0"/>
		<edge from-layer="461" from-port="0" to-layer="462" to-port="1"/>
		<edge from-layer="462" from-port="2" to-layer="463" to-port="0"/>
		<edge from-layer="463" from-port="2" to-layer="465" to-port="0"/>
		<edge from-layer="464" from-port="0" to-layer="465" to-port="1"/>
		<edge from-layer="465" from-port="2" to-layer="467" to-port="0"/>
		<edge from-layer="466" from-port="0" to-layer="467" to-port="1"/>
		<edge from-layer="467" from-port="2" to-layer="468" to-port="0"/>
		<edge from-layer="468" from-port="1" to-layer="469" to-port="0"/>
		<edge from-layer="468" from-port="1" to-layer="749" to-port="1"/>
		<edge from-layer="468" from-port="1" to-layer="474" to-port="0"/>
		<edge from-layer="469" from-port="1" to-layer="470" to-port="0"/>
		<edge from-layer="470" from-port="1" to-layer="472" to-port="0"/>
		<edge from-layer="471" from-port="0" to-layer="511" to-port="2"/>
		<edge from-layer="471" from-port="0" to-layer="509" to-port="1"/>
		<edge from-layer="471" from-port="0" to-layer="472" to-port="1"/>
		<edge from-layer="471" from-port="0" to-layer="474" to-port="2"/>
		<edge from-layer="472" from-port="2" to-layer="473" to-port="0"/>
		<edge from-layer="473" from-port="1" to-layer="474" to-port="1"/>
		<edge from-layer="474" from-port="3" to-layer="475" to-port="0"/>
		<edge from-layer="475" from-port="2" to-layer="477" to-port="0"/>
		<edge from-layer="475" from-port="2" to-layer="492" to-port="0"/>
		<edge from-layer="476" from-port="0" to-layer="477" to-port="1"/>
		<edge from-layer="477" from-port="2" to-layer="479" to-port="0"/>
		<edge from-layer="478" from-port="0" to-layer="479" to-port="1"/>
		<edge from-layer="479" from-port="2" to-layer="480" to-port="0"/>
		<edge from-layer="480" from-port="1" to-layer="482" to-port="0"/>
		<edge from-layer="481" from-port="0" to-layer="482" to-port="1"/>
		<edge from-layer="482" from-port="2" to-layer="484" to-port="0"/>
		<edge from-layer="483" from-port="0" to-layer="484" to-port="1"/>
		<edge from-layer="484" from-port="2" to-layer="485" to-port="0"/>
		<edge from-layer="485" from-port="1" to-layer="487" to-port="0"/>
		<edge from-layer="486" from-port="0" to-layer="487" to-port="1"/>
		<edge from-layer="487" from-port="2" to-layer="489" to-port="0"/>
		<edge from-layer="488" from-port="0" to-layer="489" to-port="1"/>
		<edge from-layer="489" from-port="2" to-layer="490" to-port="0"/>
		<edge from-layer="490" from-port="1" to-layer="496" to-port="0"/>
		<edge from-layer="491" from-port="0" to-layer="492" to-port="1"/>
		<edge from-layer="492" from-port="2" to-layer="494" to-port="0"/>
		<edge from-layer="493" from-port="0" to-layer="494" to-port="1"/>
		<edge from-layer="494" from-port="2" to-layer="495" to-port="0"/>
		<edge from-layer="495" from-port="1" to-layer="496" to-port="1"/>
		<edge from-layer="496" from-port="2" to-layer="498" to-port="0"/>
		<edge from-layer="497" from-port="0" to-layer="498" to-port="1"/>
		<edge from-layer="498" from-port="2" to-layer="500" to-port="0"/>
		<edge from-layer="499" from-port="0" to-layer="500" to-port="1"/>
		<edge from-layer="500" from-port="2" to-layer="501" to-port="0"/>
		<edge from-layer="501" from-port="1" to-layer="503" to-port="0"/>
		<edge from-layer="502" from-port="0" to-layer="503" to-port="1"/>
		<edge from-layer="503" from-port="2" to-layer="505" to-port="0"/>
		<edge from-layer="504" from-port="0" to-layer="505" to-port="1"/>
		<edge from-layer="505" from-port="2" to-layer="506" to-port="0"/>
		<edge from-layer="506" from-port="1" to-layer="631" to-port="1"/>
		<edge from-layer="506" from-port="1" to-layer="507" to-port="0"/>
		<edge from-layer="506" from-port="1" to-layer="511" to-port="0"/>
		<edge from-layer="507" from-port="1" to-layer="508" to-port="0"/>
		<edge from-layer="508" from-port="1" to-layer="509" to-port="0"/>
		<edge from-layer="509" from-port="2" to-layer="510" to-port="0"/>
		<edge from-layer="510" from-port="1" to-layer="511" to-port="1"/>
		<edge from-layer="511" from-port="3" to-layer="512" to-port="0"/>
		<edge from-layer="512" from-port="2" to-layer="514" to-port="0"/>
		<edge from-layer="512" from-port="2" to-layer="529" to-port="0"/>
		<edge from-layer="513" from-port="0" to-layer="514" to-port="1"/>
		<edge from-layer="514" from-port="2" to-layer="516" to-port="0"/>
		<edge from-layer="515" from-port="0" to-layer="516" to-port="1"/>
		<edge from-layer="516" from-port="2" to-layer="517" to-port="0"/>
		<edge from-layer="517" from-port="1" to-layer="519" to-port="0"/>
		<edge from-layer="518" from-port="0" to-layer="519" to-port="1"/>
		<edge from-layer="519" from-port="2" to-layer="521" to-port="0"/>
		<edge from-layer="520" from-port="0" to-layer="521" to-port="1"/>
		<edge from-layer="521" from-port="2" to-layer="522" to-port="0"/>
		<edge from-layer="522" from-port="1" to-layer="524" to-port="0"/>
		<edge from-layer="523" from-port="0" to-layer="524" to-port="1"/>
		<edge from-layer="524" from-port="2" to-layer="526" to-port="0"/>
		<edge from-layer="525" from-port="0" to-layer="526" to-port="1"/>
		<edge from-layer="526" from-port="2" to-layer="527" to-port="0"/>
		<edge from-layer="527" from-port="1" to-layer="533" to-port="0"/>
		<edge from-layer="528" from-port="0" to-layer="529" to-port="1"/>
		<edge from-layer="529" from-port="2" to-layer="531" to-port="0"/>
		<edge from-layer="530" from-port="0" to-layer="531" to-port="1"/>
		<edge from-layer="531" from-port="2" to-layer="532" to-port="0"/>
		<edge from-layer="532" from-port="1" to-layer="533" to-port="1"/>
		<edge from-layer="533" from-port="2" to-layer="535" to-port="0"/>
		<edge from-layer="534" from-port="0" to-layer="535" to-port="1"/>
		<edge from-layer="535" from-port="2" to-layer="537" to-port="0"/>
		<edge from-layer="536" from-port="0" to-layer="537" to-port="1"/>
		<edge from-layer="537" from-port="2" to-layer="538" to-port="0"/>
		<edge from-layer="538" from-port="1" to-layer="540" to-port="0"/>
		<edge from-layer="538" from-port="1" to-layer="627" to-port="0"/>
		<edge from-layer="539" from-port="0" to-layer="540" to-port="1"/>
		<edge from-layer="540" from-port="2" to-layer="542" to-port="0"/>
		<edge from-layer="541" from-port="0" to-layer="542" to-port="1"/>
		<edge from-layer="542" from-port="2" to-layer="544" to-port="0"/>
		<edge from-layer="543" from-port="0" to-layer="544" to-port="1"/>
		<edge from-layer="544" from-port="2" to-layer="546" to-port="0"/>
		<edge from-layer="545" from-port="0" to-layer="546" to-port="1"/>
		<edge from-layer="546" from-port="2" to-layer="550" to-port="0"/>
		<edge from-layer="546" from-port="2" to-layer="555" to-port="0"/>
		<edge from-layer="546" from-port="2" to-layer="559" to-port="0"/>
		<edge from-layer="547" from-port="0" to-layer="550" to-port="1"/>
		<edge from-layer="548" from-port="0" to-layer="550" to-port="2"/>
		<edge from-layer="549" from-port="0" to-layer="550" to-port="3"/>
		<edge from-layer="550" from-port="4" to-layer="551" to-port="0"/>
		<edge from-layer="551" from-port="1" to-layer="561" to-port="0"/>
		<edge from-layer="552" from-port="0" to-layer="555" to-port="1"/>
		<edge from-layer="553" from-port="0" to-layer="555" to-port="2"/>
		<edge from-layer="554" from-port="0" to-layer="555" to-port="3"/>
		<edge from-layer="555" from-port="4" to-layer="561" to-port="1"/>
		<edge from-layer="556" from-port="0" to-layer="559" to-port="1"/>
		<edge from-layer="557" from-port="0" to-layer="559" to-port="2"/>
		<edge from-layer="558" from-port="0" to-layer="559" to-port="3"/>
		<edge from-layer="559" from-port="4" to-layer="560" to-port="0"/>
		<edge from-layer="560" from-port="1" to-layer="561" to-port="2"/>
		<edge from-layer="561" from-port="3" to-layer="587" to-port="0"/>
		<edge from-layer="561" from-port="3" to-layer="591" to-port="0"/>
		<edge from-layer="561" from-port="3" to-layer="598" to-port="0"/>
		<edge from-layer="561" from-port="3" to-layer="604" to-port="0"/>
		<edge from-layer="561" from-port="3" to-layer="577" to-port="0"/>
		<edge from-layer="561" from-port="3" to-layer="610" to-port="0"/>
		<edge from-layer="561" from-port="3" to-layer="616" to-port="0"/>
		<edge from-layer="561" from-port="3" to-layer="622" to-port="0"/>
		<edge from-layer="561" from-port="3" to-layer="565" to-port="0"/>
		<edge from-layer="562" from-port="0" to-layer="565" to-port="1"/>
		<edge from-layer="563" from-port="0" to-layer="565" to-port="2"/>
		<edge from-layer="564" from-port="0" to-layer="565" to-port="3"/>
		<edge from-layer="565" from-port="4" to-layer="567" to-port="0"/>
		<edge from-layer="566" from-port="0" to-layer="567" to-port="1"/>
		<edge from-layer="567" from-port="2" to-layer="569" to-port="0"/>
		<edge from-layer="568" from-port="0" to-layer="569" to-port="1"/>
		<edge from-layer="569" from-port="2" to-layer="571" to-port="0"/>
		<edge from-layer="570" from-port="0" to-layer="571" to-port="1"/>
		<edge from-layer="571" from-port="2" to-layer="573" to-port="0"/>
		<edge from-layer="572" from-port="0" to-layer="573" to-port="1"/>
		<edge from-layer="573" from-port="2" to-layer="623" to-port="0"/>
		<edge from-layer="574" from-port="0" to-layer="577" to-port="1"/>
		<edge from-layer="575" from-port="0" to-layer="577" to-port="2"/>
		<edge from-layer="576" from-port="0" to-layer="577" to-port="3"/>
		<edge from-layer="577" from-port="4" to-layer="579" to-port="0"/>
		<edge from-layer="578" from-port="0" to-layer="579" to-port="1"/>
		<edge from-layer="579" from-port="2" to-layer="581" to-port="0"/>
		<edge from-layer="580" from-port="0" to-layer="581" to-port="1"/>
		<edge from-layer="581" from-port="2" to-layer="583" to-port="0"/>
		<edge from-layer="582" from-port="0" to-layer="592" to-port="1"/>
		<edge from-layer="582" from-port="0" to-layer="611" to-port="1"/>
		<edge from-layer="582" from-port="0" to-layer="617" to-port="1"/>
		<edge from-layer="582" from-port="0" to-layer="605" to-port="1"/>
		<edge from-layer="582" from-port="0" to-layer="583" to-port="1"/>
		<edge from-layer="582" from-port="0" to-layer="599" to-port="1"/>
		<edge from-layer="583" from-port="2" to-layer="623" to-port="1"/>
		<edge from-layer="584" from-port="0" to-layer="587" to-port="1"/>
		<edge from-layer="585" from-port="0" to-layer="587" to-port="2"/>
		<edge from-layer="586" from-port="0" to-layer="587" to-port="3"/>
		<edge from-layer="587" from-port="4" to-layer="623" to-port="2"/>
		<edge from-layer="588" from-port="0" to-layer="591" to-port="1"/>
		<edge from-layer="589" from-port="0" to-layer="591" to-port="2"/>
		<edge from-layer="590" from-port="0" to-layer="591" to-port="3"/>
		<edge from-layer="591" from-port="4" to-layer="592" to-port="0"/>
		<edge from-layer="592" from-port="2" to-layer="594" to-port="0"/>
		<edge from-layer="593" from-port="0" to-layer="600" to-port="1"/>
		<edge from-layer="593" from-port="0" to-layer="618" to-port="1"/>
		<edge from-layer="593" from-port="0" to-layer="594" to-port="1"/>
		<edge from-layer="593" from-port="0" to-layer="606" to-port="1"/>
		<edge from-layer="593" from-port="0" to-layer="612" to-port="1"/>
		<edge from-layer="594" from-port="2" to-layer="623" to-port="3"/>
		<edge from-layer="595" from-port="0" to-layer="598" to-port="1"/>
		<edge from-layer="596" from-port="0" to-layer="598" to-port="2"/>
		<edge from-layer="597" from-port="0" to-layer="598" to-port="3"/>
		<edge from-layer="598" from-port="4" to-layer="599" to-port="0"/>
		<edge from-layer="599" from-port="2" to-layer="600" to-port="0"/>
		<edge from-layer="600" from-port="2" to-layer="623" to-port="4"/>
		<edge from-layer="601" from-port="0" to-layer="604" to-port="1"/>
		<edge from-layer="602" from-port="0" to-layer="604" to-port="2"/>
		<edge from-layer="603" from-port="0" to-layer="604" to-port="3"/>
		<edge from-layer="604" from-port="4" to-layer="605" to-port="0"/>
		<edge from-layer="605" from-port="2" to-layer="606" to-port="0"/>
		<edge from-layer="606" from-port="2" to-layer="623" to-port="5"/>
		<edge from-layer="607" from-port="0" to-layer="610" to-port="1"/>
		<edge from-layer="608" from-port="0" to-layer="610" to-port="2"/>
		<edge from-layer="609" from-port="0" to-layer="610" to-port="3"/>
		<edge from-layer="610" from-port="4" to-layer="611" to-port="0"/>
		<edge from-layer="611" from-port="2" to-layer="612" to-port="0"/>
		<edge from-layer="612" from-port="2" to-layer="623" to-port="6"/>
		<edge from-layer="613" from-port="0" to-layer="616" to-port="1"/>
		<edge from-layer="614" from-port="0" to-layer="616" to-port="2"/>
		<edge from-layer="615" from-port="0" to-layer="616" to-port="3"/>
		<edge from-layer="616" from-port="4" to-layer="617" to-port="0"/>
		<edge from-layer="617" from-port="2" to-layer="618" to-port="0"/>
		<edge from-layer="618" from-port="2" to-layer="623" to-port="7"/>
		<edge from-layer="619" from-port="0" to-layer="622" to-port="1"/>
		<edge from-layer="620" from-port="0" to-layer="622" to-port="2"/>
		<edge from-layer="621" from-port="0" to-layer="622" to-port="3"/>
		<edge from-layer="622" from-port="4" to-layer="623" to-port="8"/>
		<edge from-layer="623" from-port="9" to-layer="625" to-port="0"/>
		<edge from-layer="624" from-port="0" to-layer="625" to-port="1"/>
		<edge from-layer="624" from-port="0" to-layer="861" to-port="1"/>
		<edge from-layer="624" from-port="0" to-layer="743" to-port="1"/>
		<edge from-layer="625" from-port="2" to-layer="862" to-port="0"/>
		<edge from-layer="626" from-port="0" to-layer="627" to-port="1"/>
		<edge from-layer="627" from-port="2" to-layer="629" to-port="0"/>
		<edge from-layer="628" from-port="0" to-layer="629" to-port="1"/>
		<edge from-layer="629" from-port="2" to-layer="630" to-port="0"/>
		<edge from-layer="630" from-port="1" to-layer="631" to-port="0"/>
		<edge from-layer="631" from-port="2" to-layer="633" to-port="0"/>
		<edge from-layer="631" from-port="2" to-layer="648" to-port="0"/>
		<edge from-layer="632" from-port="0" to-layer="633" to-port="1"/>
		<edge from-layer="633" from-port="2" to-layer="635" to-port="0"/>
		<edge from-layer="634" from-port="0" to-layer="635" to-port="1"/>
		<edge from-layer="635" from-port="2" to-layer="636" to-port="0"/>
		<edge from-layer="636" from-port="1" to-layer="638" to-port="0"/>
		<edge from-layer="637" from-port="0" to-layer="638" to-port="1"/>
		<edge from-layer="638" from-port="2" to-layer="640" to-port="0"/>
		<edge from-layer="639" from-port="0" to-layer="640" to-port="1"/>
		<edge from-layer="640" from-port="2" to-layer="641" to-port="0"/>
		<edge from-layer="641" from-port="1" to-layer="643" to-port="0"/>
		<edge from-layer="642" from-port="0" to-layer="643" to-port="1"/>
		<edge from-layer="643" from-port="2" to-layer="645" to-port="0"/>
		<edge from-layer="644" from-port="0" to-layer="645" to-port="1"/>
		<edge from-layer="645" from-port="2" to-layer="646" to-port="0"/>
		<edge from-layer="646" from-port="1" to-layer="652" to-port="0"/>
		<edge from-layer="647" from-port="0" to-layer="648" to-port="1"/>
		<edge from-layer="648" from-port="2" to-layer="650" to-port="0"/>
		<edge from-layer="649" from-port="0" to-layer="650" to-port="1"/>
		<edge from-layer="650" from-port="2" to-layer="651" to-port="0"/>
		<edge from-layer="651" from-port="1" to-layer="652" to-port="1"/>
		<edge from-layer="652" from-port="2" to-layer="654" to-port="0"/>
		<edge from-layer="653" from-port="0" to-layer="654" to-port="1"/>
		<edge from-layer="654" from-port="2" to-layer="656" to-port="0"/>
		<edge from-layer="655" from-port="0" to-layer="656" to-port="1"/>
		<edge from-layer="656" from-port="2" to-layer="657" to-port="0"/>
		<edge from-layer="657" from-port="1" to-layer="745" to-port="0"/>
		<edge from-layer="657" from-port="1" to-layer="659" to-port="0"/>
		<edge from-layer="658" from-port="0" to-layer="659" to-port="1"/>
		<edge from-layer="659" from-port="2" to-layer="661" to-port="0"/>
		<edge from-layer="660" from-port="0" to-layer="661" to-port="1"/>
		<edge from-layer="661" from-port="2" to-layer="663" to-port="0"/>
		<edge from-layer="662" from-port="0" to-layer="663" to-port="1"/>
		<edge from-layer="663" from-port="2" to-layer="665" to-port="0"/>
		<edge from-layer="664" from-port="0" to-layer="665" to-port="1"/>
		<edge from-layer="665" from-port="2" to-layer="669" to-port="0"/>
		<edge from-layer="665" from-port="2" to-layer="678" to-port="0"/>
		<edge from-layer="665" from-port="2" to-layer="674" to-port="0"/>
		<edge from-layer="666" from-port="0" to-layer="669" to-port="1"/>
		<edge from-layer="667" from-port="0" to-layer="669" to-port="2"/>
		<edge from-layer="668" from-port="0" to-layer="669" to-port="3"/>
		<edge from-layer="669" from-port="4" to-layer="670" to-port="0"/>
		<edge from-layer="670" from-port="1" to-layer="680" to-port="0"/>
		<edge from-layer="671" from-port="0" to-layer="674" to-port="1"/>
		<edge from-layer="672" from-port="0" to-layer="674" to-port="2"/>
		<edge from-layer="673" from-port="0" to-layer="674" to-port="3"/>
		<edge from-layer="674" from-port="4" to-layer="680" to-port="1"/>
		<edge from-layer="675" from-port="0" to-layer="678" to-port="1"/>
		<edge from-layer="676" from-port="0" to-layer="678" to-port="2"/>
		<edge from-layer="677" from-port="0" to-layer="678" to-port="3"/>
		<edge from-layer="678" from-port="4" to-layer="679" to-port="0"/>
		<edge from-layer="679" from-port="1" to-layer="680" to-port="2"/>
		<edge from-layer="680" from-port="3" to-layer="684" to-port="0"/>
		<edge from-layer="680" from-port="3" to-layer="735" to-port="0"/>
		<edge from-layer="680" from-port="3" to-layer="741" to-port="0"/>
		<edge from-layer="680" from-port="3" to-layer="710" to-port="0"/>
		<edge from-layer="680" from-port="3" to-layer="706" to-port="0"/>
		<edge from-layer="680" from-port="3" to-layer="729" to-port="0"/>
		<edge from-layer="680" from-port="3" to-layer="717" to-port="0"/>
		<edge from-layer="680" from-port="3" to-layer="723" to-port="0"/>
		<edge from-layer="680" from-port="3" to-layer="696" to-port="0"/>
		<edge from-layer="681" from-port="0" to-layer="684" to-port="1"/>
		<edge from-layer="682" from-port="0" to-layer="684" to-port="2"/>
		<edge from-layer="683" from-port="0" to-layer="684" to-port="3"/>
		<edge from-layer="684" from-port="4" to-layer="686" to-port="0"/>
		<edge from-layer="685" from-port="0" to-layer="686" to-port="1"/>
		<edge from-layer="686" from-port="2" to-layer="688" to-port="0"/>
		<edge from-layer="687" from-port="0" to-layer="688" to-port="1"/>
		<edge from-layer="688" from-port="2" to-layer="690" to-port="0"/>
		<edge from-layer="689" from-port="0" to-layer="690" to-port="1"/>
		<edge from-layer="690" from-port="2" to-layer="692" to-port="0"/>
		<edge from-layer="691" from-port="0" to-layer="692" to-port="1"/>
		<edge from-layer="692" from-port="2" to-layer="742" to-port="0"/>
		<edge from-layer="693" from-port="0" to-layer="696" to-port="1"/>
		<edge from-layer="694" from-port="0" to-layer="696" to-port="2"/>
		<edge from-layer="695" from-port="0" to-layer="696" to-port="3"/>
		<edge from-layer="696" from-port="4" to-layer="698" to-port="0"/>
		<edge from-layer="697" from-port="0" to-layer="698" to-port="1"/>
		<edge from-layer="698" from-port="2" to-layer="700" to-port="0"/>
		<edge from-layer="699" from-port="0" to-layer="700" to-port="1"/>
		<edge from-layer="700" from-port="2" to-layer="702" to-port="0"/>
		<edge from-layer="701" from-port="0" to-layer="736" to-port="1"/>
		<edge from-layer="701" from-port="0" to-layer="724" to-port="1"/>
		<edge from-layer="701" from-port="0" to-layer="730" to-port="1"/>
		<edge from-layer="701" from-port="0" to-layer="718" to-port="1"/>
		<edge from-layer="701" from-port="0" to-layer="711" to-port="1"/>
		<edge from-layer="701" from-port="0" to-layer="702" to-port="1"/>
		<edge from-layer="702" from-port="2" to-layer="742" to-port="1"/>
		<edge from-layer="703" from-port="0" to-layer="706" to-port="1"/>
		<edge from-layer="704" from-port="0" to-layer="706" to-port="2"/>
		<edge from-layer="705" from-port="0" to-layer="706" to-port="3"/>
		<edge from-layer="706" from-port="4" to-layer="742" to-port="2"/>
		<edge from-layer="707" from-port="0" to-layer="710" to-port="1"/>
		<edge from-layer="708" from-port="0" to-layer="710" to-port="2"/>
		<edge from-layer="709" from-port="0" to-layer="710" to-port="3"/>
		<edge from-layer="710" from-port="4" to-layer="711" to-port="0"/>
		<edge from-layer="711" from-port="2" to-layer="713" to-port="0"/>
		<edge from-layer="712" from-port="0" to-layer="731" to-port="1"/>
		<edge from-layer="712" from-port="0" to-layer="737" to-port="1"/>
		<edge from-layer="712" from-port="0" to-layer="719" to-port="1"/>
		<edge from-layer="712" from-port="0" to-layer="713" to-port="1"/>
		<edge from-layer="712" from-port="0" to-layer="725" to-port="1"/>
		<edge from-layer="713" from-port="2" to-layer="742" to-port="3"/>
		<edge from-layer="714" from-port="0" to-layer="717" to-port="1"/>
		<edge from-layer="715" from-port="0" to-layer="717" to-port="2"/>
		<edge from-layer="716" from-port="0" to-layer="717" to-port="3"/>
		<edge from-layer="717" from-port="4" to-layer="718" to-port="0"/>
		<edge from-layer="718" from-port="2" to-layer="719" to-port="0"/>
		<edge from-layer="719" from-port="2" to-layer="742" to-port="4"/>
		<edge from-layer="720" from-port="0" to-layer="723" to-port="1"/>
		<edge from-layer="721" from-port="0" to-layer="723" to-port="2"/>
		<edge from-layer="722" from-port="0" to-layer="723" to-port="3"/>
		<edge from-layer="723" from-port="4" to-layer="724" to-port="0"/>
		<edge from-layer="724" from-port="2" to-layer="725" to-port="0"/>
		<edge from-layer="725" from-port="2" to-layer="742" to-port="5"/>
		<edge from-layer="726" from-port="0" to-layer="729" to-port="1"/>
		<edge from-layer="727" from-port="0" to-layer="729" to-port="2"/>
		<edge from-layer="728" from-port="0" to-layer="729" to-port="3"/>
		<edge from-layer="729" from-port="4" to-layer="730" to-port="0"/>
		<edge from-layer="730" from-port="2" to-layer="731" to-port="0"/>
		<edge from-layer="731" from-port="2" to-layer="742" to-port="6"/>
		<edge from-layer="732" from-port="0" to-layer="735" to-port="1"/>
		<edge from-layer="733" from-port="0" to-layer="735" to-port="2"/>
		<edge from-layer="734" from-port="0" to-layer="735" to-port="3"/>
		<edge from-layer="735" from-port="4" to-layer="736" to-port="0"/>
		<edge from-layer="736" from-port="2" to-layer="737" to-port="0"/>
		<edge from-layer="737" from-port="2" to-layer="742" to-port="7"/>
		<edge from-layer="738" from-port="0" to-layer="741" to-port="1"/>
		<edge from-layer="739" from-port="0" to-layer="741" to-port="2"/>
		<edge from-layer="740" from-port="0" to-layer="741" to-port="3"/>
		<edge from-layer="741" from-port="4" to-layer="742" to-port="8"/>
		<edge from-layer="742" from-port="9" to-layer="743" to-port="0"/>
		<edge from-layer="743" from-port="2" to-layer="862" to-port="1"/>
		<edge from-layer="744" from-port="0" to-layer="745" to-port="1"/>
		<edge from-layer="745" from-port="2" to-layer="747" to-port="0"/>
		<edge from-layer="746" from-port="0" to-layer="747" to-port="1"/>
		<edge from-layer="747" from-port="2" to-layer="748" to-port="0"/>
		<edge from-layer="748" from-port="1" to-layer="749" to-port="0"/>
		<edge from-layer="749" from-port="2" to-layer="751" to-port="0"/>
		<edge from-layer="749" from-port="2" to-layer="766" to-port="0"/>
		<edge from-layer="750" from-port="0" to-layer="751" to-port="1"/>
		<edge from-layer="751" from-port="2" to-layer="753" to-port="0"/>
		<edge from-layer="752" from-port="0" to-layer="753" to-port="1"/>
		<edge from-layer="753" from-port="2" to-layer="754" to-port="0"/>
		<edge from-layer="754" from-port="1" to-layer="756" to-port="0"/>
		<edge from-layer="755" from-port="0" to-layer="756" to-port="1"/>
		<edge from-layer="756" from-port="2" to-layer="758" to-port="0"/>
		<edge from-layer="757" from-port="0" to-layer="758" to-port="1"/>
		<edge from-layer="758" from-port="2" to-layer="759" to-port="0"/>
		<edge from-layer="759" from-port="1" to-layer="761" to-port="0"/>
		<edge from-layer="760" from-port="0" to-layer="761" to-port="1"/>
		<edge from-layer="761" from-port="2" to-layer="763" to-port="0"/>
		<edge from-layer="762" from-port="0" to-layer="763" to-port="1"/>
		<edge from-layer="763" from-port="2" to-layer="764" to-port="0"/>
		<edge from-layer="764" from-port="1" to-layer="770" to-port="0"/>
		<edge from-layer="765" from-port="0" to-layer="766" to-port="1"/>
		<edge from-layer="766" from-port="2" to-layer="768" to-port="0"/>
		<edge from-layer="767" from-port="0" to-layer="768" to-port="1"/>
		<edge from-layer="768" from-port="2" to-layer="769" to-port="0"/>
		<edge from-layer="769" from-port="1" to-layer="770" to-port="1"/>
		<edge from-layer="770" from-port="2" to-layer="772" to-port="0"/>
		<edge from-layer="771" from-port="0" to-layer="772" to-port="1"/>
		<edge from-layer="772" from-port="2" to-layer="774" to-port="0"/>
		<edge from-layer="773" from-port="0" to-layer="774" to-port="1"/>
		<edge from-layer="774" from-port="2" to-layer="775" to-port="0"/>
		<edge from-layer="775" from-port="1" to-layer="777" to-port="0"/>
		<edge from-layer="776" from-port="0" to-layer="777" to-port="1"/>
		<edge from-layer="777" from-port="2" to-layer="779" to-port="0"/>
		<edge from-layer="778" from-port="0" to-layer="779" to-port="1"/>
		<edge from-layer="779" from-port="2" to-layer="781" to-port="0"/>
		<edge from-layer="780" from-port="0" to-layer="781" to-port="1"/>
		<edge from-layer="781" from-port="2" to-layer="783" to-port="0"/>
		<edge from-layer="782" from-port="0" to-layer="783" to-port="1"/>
		<edge from-layer="783" from-port="2" to-layer="787" to-port="0"/>
		<edge from-layer="783" from-port="2" to-layer="792" to-port="0"/>
		<edge from-layer="783" from-port="2" to-layer="796" to-port="0"/>
		<edge from-layer="784" from-port="0" to-layer="787" to-port="1"/>
		<edge from-layer="785" from-port="0" to-layer="787" to-port="2"/>
		<edge from-layer="786" from-port="0" to-layer="787" to-port="3"/>
		<edge from-layer="787" from-port="4" to-layer="788" to-port="0"/>
		<edge from-layer="788" from-port="1" to-layer="798" to-port="0"/>
		<edge from-layer="789" from-port="0" to-layer="792" to-port="1"/>
		<edge from-layer="790" from-port="0" to-layer="792" to-port="2"/>
		<edge from-layer="791" from-port="0" to-layer="792" to-port="3"/>
		<edge from-layer="792" from-port="4" to-layer="798" to-port="1"/>
		<edge from-layer="793" from-port="0" to-layer="796" to-port="1"/>
		<edge from-layer="794" from-port="0" to-layer="796" to-port="2"/>
		<edge from-layer="795" from-port="0" to-layer="796" to-port="3"/>
		<edge from-layer="796" from-port="4" to-layer="797" to-port="0"/>
		<edge from-layer="797" from-port="1" to-layer="798" to-port="2"/>
		<edge from-layer="798" from-port="3" to-layer="859" to-port="0"/>
		<edge from-layer="798" from-port="3" to-layer="824" to-port="0"/>
		<edge from-layer="798" from-port="3" to-layer="828" to-port="0"/>
		<edge from-layer="798" from-port="3" to-layer="802" to-port="0"/>
		<edge from-layer="798" from-port="3" to-layer="835" to-port="0"/>
		<edge from-layer="798" from-port="3" to-layer="814" to-port="0"/>
		<edge from-layer="798" from-port="3" to-layer="853" to-port="0"/>
		<edge from-layer="798" from-port="3" to-layer="841" to-port="0"/>
		<edge from-layer="798" from-port="3" to-layer="847" to-port="0"/>
		<edge from-layer="799" from-port="0" to-layer="802" to-port="1"/>
		<edge from-layer="800" from-port="0" to-layer="802" to-port="2"/>
		<edge from-layer="801" from-port="0" to-layer="802" to-port="3"/>
		<edge from-layer="802" from-port="4" to-layer="804" to-port="0"/>
		<edge from-layer="803" from-port="0" to-layer="804" to-port="1"/>
		<edge from-layer="804" from-port="2" to-layer="806" to-port="0"/>
		<edge from-layer="805" from-port="0" to-layer="806" to-port="1"/>
		<edge from-layer="806" from-port="2" to-layer="808" to-port="0"/>
		<edge from-layer="807" from-port="0" to-layer="808" to-port="1"/>
		<edge from-layer="808" from-port="2" to-layer="810" to-port="0"/>
		<edge from-layer="809" from-port="0" to-layer="810" to-port="1"/>
		<edge from-layer="810" from-port="2" to-layer="860" to-port="0"/>
		<edge from-layer="811" from-port="0" to-layer="814" to-port="1"/>
		<edge from-layer="812" from-port="0" to-layer="814" to-port="2"/>
		<edge from-layer="813" from-port="0" to-layer="814" to-port="3"/>
		<edge from-layer="814" from-port="4" to-layer="816" to-port="0"/>
		<edge from-layer="815" from-port="0" to-layer="816" to-port="1"/>
		<edge from-layer="816" from-port="2" to-layer="818" to-port="0"/>
		<edge from-layer="817" from-port="0" to-layer="818" to-port="1"/>
		<edge from-layer="818" from-port="2" to-layer="820" to-port="0"/>
		<edge from-layer="819" from-port="0" to-layer="842" to-port="1"/>
		<edge from-layer="819" from-port="0" to-layer="848" to-port="1"/>
		<edge from-layer="819" from-port="0" to-layer="836" to-port="1"/>
		<edge from-layer="819" from-port="0" to-layer="854" to-port="1"/>
		<edge from-layer="819" from-port="0" to-layer="829" to-port="1"/>
		<edge from-layer="819" from-port="0" to-layer="820" to-port="1"/>
		<edge from-layer="820" from-port="2" to-layer="860" to-port="1"/>
		<edge from-layer="821" from-port="0" to-layer="824" to-port="1"/>
		<edge from-layer="822" from-port="0" to-layer="824" to-port="2"/>
		<edge from-layer="823" from-port="0" to-layer="824" to-port="3"/>
		<edge from-layer="824" from-port="4" to-layer="860" to-port="2"/>
		<edge from-layer="825" from-port="0" to-layer="828" to-port="1"/>
		<edge from-layer="826" from-port="0" to-layer="828" to-port="2"/>
		<edge from-layer="827" from-port="0" to-layer="828" to-port="3"/>
		<edge from-layer="828" from-port="4" to-layer="829" to-port="0"/>
		<edge from-layer="829" from-port="2" to-layer="831" to-port="0"/>
		<edge from-layer="830" from-port="0" to-layer="855" to-port="1"/>
		<edge from-layer="830" from-port="0" to-layer="843" to-port="1"/>
		<edge from-layer="830" from-port="0" to-layer="837" to-port="1"/>
		<edge from-layer="830" from-port="0" to-layer="831" to-port="1"/>
		<edge from-layer="830" from-port="0" to-layer="849" to-port="1"/>
		<edge from-layer="831" from-port="2" to-layer="860" to-port="3"/>
		<edge from-layer="832" from-port="0" to-layer="835" to-port="1"/>
		<edge from-layer="833" from-port="0" to-layer="835" to-port="2"/>
		<edge from-layer="834" from-port="0" to-layer="835" to-port="3"/>
		<edge from-layer="835" from-port="4" to-layer="836" to-port="0"/>
		<edge from-layer="836" from-port="2" to-layer="837" to-port="0"/>
		<edge from-layer="837" from-port="2" to-layer="860" to-port="4"/>
		<edge from-layer="838" from-port="0" to-layer="841" to-port="1"/>
		<edge from-layer="839" from-port="0" to-layer="841" to-port="2"/>
		<edge from-layer="840" from-port="0" to-layer="841" to-port="3"/>
		<edge from-layer="841" from-port="4" to-layer="842" to-port="0"/>
		<edge from-layer="842" from-port="2" to-layer="843" to-port="0"/>
		<edge from-layer="843" from-port="2" to-layer="860" to-port="5"/>
		<edge from-layer="844" from-port="0" to-layer="847" to-port="1"/>
		<edge from-layer="845" from-port="0" to-layer="847" to-port="2"/>
		<edge from-layer="846" from-port="0" to-layer="847" to-port="3"/>
		<edge from-layer="847" from-port="4" to-layer="848" to-port="0"/>
		<edge from-layer="848" from-port="2" to-layer="849" to-port="0"/>
		<edge from-layer="849" from-port="2" to-layer="860" to-port="6"/>
		<edge from-layer="850" from-port="0" to-layer="853" to-port="1"/>
		<edge from-layer="851" from-port="0" to-layer="853" to-port="2"/>
		<edge from-layer="852" from-port="0" to-layer="853" to-port="3"/>
		<edge from-layer="853" from-port="4" to-layer="854" to-port="0"/>
		<edge from-layer="854" from-port="2" to-layer="855" to-port="0"/>
		<edge from-layer="855" from-port="2" to-layer="860" to-port="7"/>
		<edge from-layer="856" from-port="0" to-layer="859" to-port="1"/>
		<edge from-layer="857" from-port="0" to-layer="859" to-port="2"/>
		<edge from-layer="858" from-port="0" to-layer="859" to-port="3"/>
		<edge from-layer="859" from-port="4" to-layer="860" to-port="8"/>
		<edge from-layer="860" from-port="9" to-layer="861" to-port="0"/>
		<edge from-layer="861" from-port="2" to-layer="862" to-port="2"/>
		<edge from-layer="862" from-port="3" to-layer="863" to-port="0"/>
	</edges>
	<meta_data>
		<MO_version value="2022.1.0-7019-cdb9bec7210-releases/2022/1"/>
		<Runtime_version value="2022.1.0-7019-cdb9bec7210-releases/2022/1"/>
		<legacy_path value="False"/>
		<cli_parameters>
			<caffe_parser_path value="DIR"/>
			<compress_fp16 value="False"/>
			<data_type value="FP32"/>
			<disable_nhwc_to_nchw value="False"/>
			<disable_omitting_optional value="False"/>
			<disable_resnet_optimization value="False"/>
			<disable_weights_compression value="False"/>
			<enable_concat_optimization value="False"/>
			<enable_flattening_nested_params value="False"/>
			<enable_ssd_gluoncv value="False"/>
			<extensions value="DIR"/>
			<framework value="onnx"/>
			<freeze_placeholder_with_value value="{}"/>
			<input_model value="DIR/best_model.onnx"/>
			<input_model_is_text value="False"/>
			<input_shape value="[1,3,416,416]"/>
			<k value="DIR/CustomLayersMapping.xml"/>
			<layout value="()"/>
			<layout_values value="{}"/>
			<legacy_mxnet_model value="False"/>
			<log_level value="ERROR"/>
			<mean_scale_values value="{}"/>
			<mean_values value="()"/>
			<model_name value="best_model"/>
			<output_dir value="DIR"/>
			<placeholder_data_types value="{}"/>
			<placeholder_shapes value="(1, 3, 416, 416)"/>
			<progress value="False"/>
			<remove_memory value="False"/>
			<remove_output_softmax value="False"/>
			<reverse_input_channels value="False"/>
			<save_params_from_nd value="False"/>
			<scale value="255.0"/>
			<scale_values value="()"/>
			<silent value="False"/>
			<source_layout value="()"/>
			<static_shape value="False"/>
			<stream_output value="False"/>
			<target_layout value="()"/>
			<transform value=""/>
			<use_legacy_frontend value="False"/>
			<use_new_frontend value="False"/>
			<unset unset_cli_parameters="batch, counts, disable_fusing, finegrain_fusing, input, input_checkpoint, input_meta_graph, input_proto, input_symbol, mean_file, mean_file_offsets, nd_prefix_name, output, pretrained_model_name, saved_model_dir, saved_model_tags, tensorboard_logdir, tensorflow_custom_layer_libraries, tensorflow_custom_operations_config_update, tensorflow_object_detection_api_pipeline_config, tensorflow_use_custom_operations_config, transformations_config"/>
		</cli_parameters>
	</meta_data>
</net>
